models/NN-Scalability-two-fluorophore-trained-model.pth (torch, 60670 bytes, 10 tensors)

fc1.weight f4 [128, 24]
00000000: cf02 b63d 8207 c53d 8d77 eebd c131 13bd
00000010: 4ef3 87be 744c bc3d f780 43bd 458e 3cbe
00000020: cdaf 25be d413 073e 275b 40be 4ac7 873d
00000030: a18c 83bd 8633 b33d 11d9 87bd df54 6ebd
00000040: 44ec a3bd c8ac 5f3e b8b0 d43d 06fb b33c
00000050: a4ba 3dbd 2877 3bbe 5ca1 043e 8882 743e
00000060: adfb 873e 6430 0f3e dc89 8dbc 2eaf 563e
00000070: fd94 0cbd c355 1a3d 4b24 163e 7004 393e
00000080: 8641 8bbc 5837 b53d 5b46 4dbe 969b 0a3e
00000090: 5778 3ebe 68e1 fb3d ee71 fdbd a20b 04be
000000a0: 042e fb3d bc4b 69be 5b21 61be a1ce 13bd
000000b0: 88f7 093e b718 c23d e9db fd3c 7880 34be
000000c0: f67d b53d 97d0 303e 4aa9 4b3e 5371 193e
000000d0: 8df6 40bd 5a28 c63d aa5e 5ebd 41b4 8fbb
000000e0: 9f42 4fbe f1f9 cd3c 3b47 33be b1e7 cbbb
000000f0: a5f7 f03d 34f8 703d 0287 e7bd 2320 d7bd
00000100: b4a1 44be 99f4 2f3d 60df bdbc 402d 08be
00000110: a29d 1e3d 65c8 ba3d 200b ca3d 6095 4c3d
00000120: 48db 443e 54ec 583e 759e 82be 15a1 7d3e
00000130: 9faf f8bb e044 053d bb54 103e f057 79be
00000140: d0fe a4bc 7a5d b3bd c00a cd3d 8b18 11be
00000150: 131e 4abe aed9 663d 35d4 0ebd af30 f43d
00000160: 47ef 803c 9223 d0bd addb 01bd 13d4 30be
00000170: b8b6 b73c 1dcf 153e 56b6 1f3e d3c4 123c
00000180: 0f3f 9cbb 563e 693c 17c0 24bc 4ac0 5e3e
00000190: daa5 653e 17f8 c93d e651 443e dc9a 6f3e
000001a0: 53b7 163e 8d14 0cbd 2ebd 4d3d b666 97bd
000001b0: 7e3e c7bd f365 543e e116 113e 9b1d 063e
000001c0: 53f7 1b3d a1f1 17be f88c 20be 1ecb 533d
000001d0: d6ef 22bd 4cc3 ff3c b366 ad3c 3ded 50bc
000001e0: 9881 643d f1dc 053d e2b2 19bd 07da 7b3e
000001f0: 5b37 1d3e 43b9 0f3b 0fff 6b3e 2da5 cbbd
00000200: f61c ed3d 2191 58be c51d 303e b07e f0bd
00000210: 77c8 7cbd 11b6 cc3d 0445 24be 37ab afbd
00000220: 1a6b 29be 2d6a 84be 8fab b33d a17b 3e3e
00000230: 529e 41be 97c7 cdbd feeb 083e d71b b43d
00000240: 5fe7 9b3d 20f9 183e 0a2a 3e3e 9e6a 16be
00000250: fc40 c1bd ca61 5bbe 5bb0 0d3e ad4f 04be
00000260: 3f48 28be a167 62bc 4b17 3b3d 4b26 79bc
00000270: cca6 bcbd 1c0e 9a3c 16d0 523e d43c 88bd
00000280: 742e d13d 2624 713e be1d 8bbd b285 b4bd
00000290: 8193 513e bc3d 5d3e c5ef 053e c481 0c3d
000002a0: b3fb a83d 2900 6b3c cd87 d6bd 223e ac3d
000002b0: 1c03 03be 73d4 b4bc bdfc b63c 6c8d 8ebe
000002c0: fb7f 1fbe 57d3 cbbd bc16 fdbd d918 5e3e
000002d0: aa66 1fbd 1817 dcbc 4ea6 273e 03fd bfbd
000002e0: 3c89 b53d 0e0b 93be e15c c2bd 41f7 9bbc
000002f0: 0b72 9c3d f7a5 a4bd 617a dfbd 383e 67bc
00000300: 571b 033e c5da 19be 8ccb 06be 46db ccbd
00000310: 4021 17be de26 53be 45d1 473e cf6b 60bd
00000320: 8669 c2bc 0f2f eebc c2d4 27be f05d a33c
00000330: 5045 d4bd ca35 bb3d 1740 5dbd b7c8 243e
00000340: fd79 b73d 7999 b5bd 1bf6 1cbe 60db 31be
00000350: f497 e43d 56b5 b33d cc55 e43d 9264 123d
00000360: 9ab4 453e 3e80 5ebe 8918 303e 4dc3 7f3e
00000370: 7a17 93bd 549a 97bd 2671 753d a330 ab3d
00000380: 8ea6 b8bd 0b46 7fbd f50b 2cbe 52bc 003e
00000390: 692c eb3d 24bf 503e e8e1 1dbe bf29 123e
000003a0: f93e afbd 2e1a 15bd 988e 53bd b91a 1b3d
000003b0: 8591 febc bff0 b73d 4d57 ea3d d256 b9bd
000003c0: e82c 11be 9117 6a3e bbc4 ccbc 1cfe 043c
000003d0: 8f18 4b3e d882 573e ce64 4d3e 3683 0bba
000003e0: 0352 c43c d190 583d 0841 7dbd b82d 0e3d
000003f0: 55b0 50be c9b5 47be 04ad b8bd 45f1 e33c
0.088872544 0.096205726 -0.11643896 -0.03593612 -0.26552814 0.0919427 -0.047730412 -0.18413647
-0.16180344 0.13191158 -0.18784772 0.06629808 -0.06423307 0.08750062 -0.06633199 -0.058186408
-0.080040485 0.21843255 0.10385269 0.021970283 -0.046320572 -0.18307173 0.12952179 0.23877919
0.265592 0.13983303 -0.01727765 0.20965263 -0.034321774 0.037679445 0.14662282 0.18068099
-0.016999017 0.088484466 -0.2004637 0.13535914 -0.18600594 0.12298852 -0.12375246 -0.12895063
0.12264636 -0.22782797 -0.2198538 -0.03608573 0.13473332 0.0947737 0.03098865 -0.17627132
0.08861916 0.1726707 0.19888797 0.14984636 -0.04711013 0.09675665 -0.054289497 -0.0043855016
-0.20240258 0.025143595 -0.17507641 -0.006222688 0.117659844 0.058830455 -0.113050476 -0.105041765
-0.1920231 0.042957876 -0.023177803 -0.13298512 0.03872455 0.091202535 0.09865403 0.049947143
0.19224274 0.21183902 -0.25511518 0.24768479 -0.007589295 0.032536387 0.14094822 -0.24349952
-0.020141035 -0.087580636 0.10011816 -0.14169519 -0.19738035 0.05635994 -0.034870345 0.11923348
0.015739096 -0.101630345 -0.03170364 -0.172684 0.022425994 0.14629789 0.155969 0.008958059
-0.0047682594 0.014236053 -0.010055563 0.2175304 0.22426549 0.098617725 0.19171867 0.23398918
0.1471837 -0.034199286 0.050229244 -0.073926374 -0.09728716 0.20742016 0.14168884 0.13097231
0.038077664 -0.14838268 -0.15678775 0.05170738 -0.039779507 0.031221054 0.021167135 -0.0127518745
0.055787653 0.03268141 -0.03752411 0.2459489 0.15353148 0.0021930493 0.23046516 -0.09943614
0.115777895 -0.21149112 0.17198856 -0.11742914 -0.061714616 0.09995664 -0.16041952 -0.085775785
-0.16544762 -0.25862256 0.087729566 0.18601848 -0.1890805 -0.10047834 0.13371274 0.087943725
0.0761249 0.14938784 0.18570724 -0.14689109 -0.09436223 -0.21424022 0.13836806 -0.12921019
-0.1643381 -0.013818652 0.04567651 -0.015206884 -0.092115015 0.018805556 0.20587191 -0.06652227
0.10213938 0.23548946 -0.06792782 -0.08814563 0.20466425 0.21605581 0.13079746 0.03430344
0.08251133 0.0143433 -0.10475121 0.084102884 -0.12794155 -0.02207396 0.022337312 -0.2784227
-0.15576164 -0.09952419 -0.12357852 0.21689166 -0.038916267 -0.02686648 0.16372034 -0.0937443
0.08864066 -0.28719372 -0.094903715 -0.019038798 0.076389395 -0.08039468 -0.10912014 -0.014113955
0.12803398 -0.1502486 -0.13163584 -0.100027606 -0.14758778 -0.20620295 0.19513424 -0.054790314
-0.023731958 -0.029075174 -0.16389754 0.019942254 -0.10364783 0.09141119 -0.0540162 0.16092192
0.08958814 -0.08867163 -0.15328257 -0.17368841 0.11161795 0.087748215 0.11149177 0.035740443
0.19307175 -0.21728608 0.1719686 0.24976845 -0.07182212 -0.07402483 0.05992236 0.08358886
-0.09016143 -0.062322658 -0.16801436 0.12571838 0.1148308 0.20385414 -0.15418208 0.14273737
-0.08556933 -0.03640192 -0.05164966 0.03786728 -0.031075248 0.089814655 0.114424326 -0.09049763
-0.14177287 0.22860552 -0.024996152 0.008117225 0.19833587 0.21046007 0.20057985 -0.0005321981
0.023964887 0.052872483 -0.061829597 0.03471157 -0.20379765 -0.1950294 -0.09017375 0.027825007

fc1.bias f4 [128]
00000000: 7f5e 413e 8670 7fbd 27fb 163e 913e 663e
00000010: 27a5 183d 0e4e 0b3d ff70 5bbe c938 92be
00000020: 0426 0fbe 7730 863e 3519 81be 9ca2 083e
00000030: adf2 8bbe 2255 5d3d 2801 1f3e e448 ff3d
00000040: bd59 893e 8233 f43d 4629 133e 9ae2 44be
00000050: 5812 853e a19b 90be 7a1e 1c3e 975b 55be
00000060: 7ee9 9e3e 04c1 473d 0774 373e 5910 093e
00000070: db87 5ebd 3e63 36be 983b 073c 37f0 273e
00000080: e8c3 3bbe bf60 a5bc d378 363e fb50 1b3d
00000090: 734b 27be c367 93bd 2a38 ac3b d61b 433e
000000a0: d439 11bd fae6 7ebe c6cf 323d e2b4 713e
000000b0: 88ee 80be f0c9 7abe 2b65 c6bd c437 933e
000000c0: 5510 aabd d1f6 9c3e ad8a 8b3d 0f0a 0a3e
000000d0: e139 bdbd fde0 2ebc 05e5 a43e 50bc d0bd
000000e0: a7d0 9ebd 23fc a2bc 6a35 8dbe 5b20 1fbe
000000f0: f21d 1fbe 73ab 4a3e 43da 783e 8377 c0bd
00000100: 8704 92bd 82b0 89be 8613 0ebd 484f 8abc
00000110: bc5a 7a3d 8ef4 d4ba 85fb 723e 25e0 c83b
00000120: feda 3fbe c8d7 983e 816b 23be 5a94 3c3e
00000130: 611e 593e cc77 023e befc dabd ac5a bd38
00000140: 768e f9bd 4b6e 8d3e cec7 593e 790d b73d
00000150: df4f 8b3d ebb1 163e ba7c 5b3e 116c 75be
00000160: ee0a 883d 0fc9 94be 2d0b 8f3e 0e09 763e
00000170: c45a c6ba ae1b 1f3e 7c9d 8a3d a033 8dbe
00000180: a9d6 033e f79b 0a3e df4e e63d 1f78 00be
00000190: 7325 213e b816 d5bd a4b6 f03d e32a c9bc
000001a0: 9a3c 063e 7b09 3f3e 7f1c 3bbe bc53 4fbe
000001b0: bffe c93d 7f29 c63d 7da0 8abe ed7a 76bd
000001c0: de50 b53d 4fc1 ff3d 46a4 453d 0f7c 01be
000001d0: cddf 873e 6c20 06be 4e1e 673e 0872 6b3e
000001e0: a239 c4bc 0fa2 8dbe 954b 05be 48b6 2d3e
000001f0: 0257 42be d3b9 11bd d189 43be f8b3 4d3e
0.18883704 -0.06236317 0.14744245 0.22484805 0.037266877 0.034009986 -0.21429823 -0.2855895
-0.13979346 0.2620885 -0.25214544 0.1334328 -0.27333584 0.054036267 0.15527785 0.12465075
0.26826277 0.11923887 0.14371213 -0.19227067 0.25990558 -0.28243735 0.15246001 -0.2083572
0.31037515 0.04876806 0.17915355 0.13385142 -0.05432878 -0.17811295 0.008253954 0.16400228
-0.18336451 -0.020187734 0.17819528 0.037919026 -0.16337375 -0.07197525 0.0052557187 0.19053587
-0.03545554 -0.24892798 0.04365518 0.23604158 -0.25181985 -0.24491096 -0.09687265 0.28753483
-0.08303896 0.30657056 0.0681356 0.134804 -0.09239555 -0.010673759 0.32205978 -0.10192168
-0.07754641 -0.019895619 -0.27579814 -0.15539686 -0.15538767 0.19791965 0.2430201 -0.09397795
-0.0712977 -0.26892477 -0.034686588 -0.016883507 0.061121687 -0.0016247199 0.2372876 0.0061302357
-0.18735883 0.29852128 -0.15958978 0.18415967 0.21202995 0.12741011 -0.10692738 9.029111e-05
-0.121853754 0.2762321 0.21267626 0.089381166 0.068023436 0.14716308 0.21434298 -0.23967005
0.0664271 -0.29059646 0.27938214 0.24026892 -0.0015133251 0.15537903 0.06768319 -0.2757845
0.12874855 0.13536058 0.11245512 -0.12545823 0.15736942 -0.10404724 0.11753586 -0.024556583
0.13109055 0.1865596 -0.18272589 -0.20246786 0.09863042 0.096758835 -0.27075568 -0.060175825
0.08853315 0.124880426 0.048252366 -0.12644981 0.26537934 -0.13098305 0.22570154 0.22992718
-0.023953263 -0.27662703 -0.13017114 0.16964066 -0.18978503 -0.035577606 -0.19095542 0.20088184

fc2.weight f4 [64, 128]
00000000: 5ea2 f13c f17a 0bbd 7031 6abd 8a71 393e
00000010: 17e7 29bd 0a1d 4dbd 25a1 cabc 7196 aebd
00000020: d055 0cbe 0620 533d 728d b6bd 4191 9bbd
00000030: dd6e 29be 0c01 e13d 5dbc 1ebd 2f05 e2bc
00000040: 907f bd3d 43f8 a2bc 6185 663d 6794 92bc
00000050: 0d55 5abc bf68 b3bc 4cdf 83bd fe1a 4cbd
00000060: 39dc 233e 4b04 e73d 1f89 373e b6d0 093d
00000070: 128a 38bd ac0b 1d3c e313 0ebe b54a 393e
00000080: 8ade cfbd 39f8 f43a e3d5 b53d b8ee 393e
00000090: c1a4 1dbe 3ca5 9ebc e9a3 873d 2085 0e3e
000000a0: fc59 bbbd 5545 2fbc f756 f1bd 3af4 af3a
000000b0: adbc bd3c e7cf 31be c332 e63d 8840 6e3e
000000c0: 2200 febc 3a43 a8bc c4fd 42bd 37d4 ea3b
000000d0: 78b2 663d bf31 193c c9f1 833e 39c7 7e3c
000000e0: d9b9 e7bc 761f 00be 65f8 853d 386e 80bd
000000f0: 2137 843d f8bb 7c3c 57cb 053e df02 413d
00000100: 85ad 28bd 6113 9f3c 6f54 193d b0c5 04bc
00000110: 461e 2ebd 3234 32bb ee05 5e3d 64f0 773d
00000120: 8cb8 72bd ece5 a7bd 709f c13b b09e cd3d
00000130: 1bac d73a 4edb 5cbd f214 fbbc 91d8 d23b
00000140: 88af b33b 0eaa 5c3d c2ae 083e 6479 db3d
00000150: 448b bbbd 915e b7bb 4d1d 2dbd 9015 46bb
00000160: 273d 34bb 5ebe f0bd 343f fa3d e624 2c3d
00000170: 6c9d 823d 1e46 103d 1c9a 963d ce35 423a
00000180: e0e7 bebc 416d 7c3b ad79 37bb d36e 8c3d
00000190: bf57 0d3e ea4c a73d 3bcd b13c 980f c33d
000001a0: e8c3 07be 89ad 0c3e bb62 53bd 9b40 f03c
000001b0: f14e 583e e086 c3bd 1ff3 3f3d 3b42 d3bc
000001c0: 7711 93bd a2d9 273e 7ef7 babd 6829 acbd
000001d0: 8812 783c 2c0e 693d d485 683e b93e 503d
000001e0: b716 e03c b130 a6bd 32f9 ac3d 0d46 6dbd
000001f0: 2653 113d 5dc7 efbd 8454 80bd 1292 81bd
00000200: d3ec f83b 54fa b8bc 7a68 3dbd 3756 cebd
00000210: 608f 5a3b dd17 afbd b0eb 62bc 8d6e cb3c
00000220: 6cc5 043d 823d 253d e059 d5bc c8fd d2bc
00000230: 07cf 783b 5e23 753d ed59 323d 1df3 20bd
00000240: c916 97bd d663 c13c 6c00 b4bc 603e 4bbb
00000250: 581f 01bc 20cf 8dbd f369 47bd 9b59 dabc
00000260: 364b a73c 83f2 1abd 2718 a3bd 986f 8dbd
00000270: c0aa c53a 963e 303d ecd9 003d 5dbe 99bd
00000280: ba77 9fbd 74ca d33c 4e4f 1e3d 7b6a 9d3d
00000290: d8a1 c2bc af07 0abd bf9c de3c 4369 e4bc
000002a0: 4deb 0bbd 2ca3 e43c 2705 1fbd 57c7 2cbd
000002b0: 3e67 7e3c 2933 8ebd f8b5 cb3c 5f9f 77bd
000002c0: c611 eebc d16e 9fbd d086 393c d2bb 573d
000002d0: 38e2 523c 6337 52bd 018d 8a3d 4e64 d0bd
000002e0: 200e 2dbc 907c 8d3b 9e75 65bd 52bd 18bd
000002f0: 8083 4e3b cfff 04bd 2778 9fbd 2afe 52bd
00000300: 1254 8fbd 0bbd ab3d 52b4 313d 2ec8 d2bd
00000310: b473 80bd 0048 173b fc80 45bd 3cb7 b1bd
00000320: eeb6 593d 8042 b53a 923e 45bd e03d 283c
00000330: 0dba 21bb ec62 d8bc 20b6 043c a69f 1e3d
00000340: 9faf 38bd 8232 2c3d dad0 3a3d 2bf9 aebd
00000350: 3bec 63bd eb8c bc3c a042 4bbb 15bd 6cbd
00000360: 8585 dbbd bcd4 853b 0a8e 233c 3cf9 df3c
00000370: 6063 3e3c 39d3 a8bd 6e94 403d fa5b b8bd
00000380: dd37 32bd 171a 60bd 38e0 5cbd 2d1b 3e3c
00000390: 4903 a73c da52 7f3d e501 a6bd 11e5 27bd
000003a0: 70e0 c7bb 3adc 2abd 74b1 a9bd f628 683b
000003b0: 9c0b 493d a4e9 ac3c 40e1 aebd 1d13 5637
000003c0: dfb0 973d 5dcf 78bc f88d ac3c 136a d3bd
000003d0: 7267 93bc a71d e7bb 02cb 20bd 22c5 5cbd
000003e0: 9418 d7bd 921f 0dbd b091 e43c d4ab 9bbc
000003f0: 66fb f0bc 042f c63c 66e0 683d 59c0 82bd
0.029496368 -0.034052793 -0.057176054 0.18109718 -0.04148015 -0.050076522 -0.024735043 -0.08524788
-0.1370461 0.05154421 -0.08913697 -0.07596064 -0.16546197 0.10986528 -0.038753856 -0.027590362
0.09252846 -0.019893771 0.056279544 -0.01789303 -0.013325942 -0.021900533 -0.06439075 -0.04983043
0.16001977 0.11280116 0.17923401 0.033646308 -0.04505355 0.009585302 -0.13874774 0.18094905
-0.10149868 0.0018689699 0.08878686 0.1815747 -0.1539488 -0.0193659 0.0662306 0.1391797
-0.091480225 -0.010697682 -0.11784165 0.0013424226 0.023161257 -0.17364465 0.11240151 0.23266804
-0.031005923 -0.020539869 -0.04760529 0.0071664113 0.056322545 0.009350239 0.25770405 0.015550428
-0.028286861 -0.12512001 0.06541518 -0.062710226 0.064558275 0.015425675 0.13065849 0.04712188
-0.041181106 0.01941842 0.037434038 -0.008103773 -0.04250934 -0.0027191755 0.054204874 0.06053199
-0.05925803 -0.08198151 0.005908899 0.10040033 0.001645449 -0.053920083 -0.030649636 0.006434508
0.0054835714 0.053873114 0.13347915 0.10716513 -0.09157422 -0.00559599 -0.04226427 -0.0030225255
-0.002750227 -0.1175506 0.12219086 0.042027377 0.06377682 0.03522312 0.07353613 0.000740853
-0.023303926 0.003851727 -0.0027996108 0.068570755 0.13803004 0.08168967 0.021704307 0.09524459
-0.13258326 0.13738073 -0.05160783 0.029327681 0.21123864 -0.0954721 0.046862718 -0.025788417
-0.071810655 0.16391614 -0.09129237 -0.08406335 0.015141137 0.05689828 0.22707301 0.050841067
0.027354581 -0.08114756 0.08445968 -0.057928134 0.035479687 -0.117079474 -0.0626612 -0.06326689
0.007596591 -0.022580303 -0.046242215 -0.10075038 0.0033349618 -0.085494734 -0.013850138 0.024832988
0.03241484 0.04034186 -0.026043832 -0.025755778 0.0037965195 0.059848182 0.04354279 -0.03929435
-0.07377393 0.023607176 -0.021972857 -0.003101252 -0.007881008 -0.069242716 -0.048685025 -0.026654055
0.020421606 -0.037828933 -0.07963591 -0.069060504 0.0015080795 0.043028437 0.031457826 -0.07507012
-0.07786508 0.025853373 0.03864985 0.07686325 -0.023758814 -0.033698734 0.027174352 -0.027882224
-0.034159947 0.027909838 -0.038823273 -0.042182293 0.015527545 -0.06943352 0.024867043 -0.060454722
-0.02906121 -0.077848084 0.011323646 0.052669354 0.012871318 -0.051322352 0.067651756 -0.101753816
-0.01056245 0.0043178275 -0.05602037 -0.037289925 0.0031511486 -0.03247052 -0.07786589 -0.05151192
-0.06998457 0.083856665 0.043384857 -0.102920875 -0.062720686 0.0023083687 -0.048218712 -0.08677527
0.05315297 0.0013829023 -0.048155375 0.010268658 -0.0024677545 -0.026414357 0.008100063 0.03872647
-0.04508936 0.042040356 0.045609333 -0.08543619 -0.05564521 0.023016414 -0.0031015053 -0.05779751
-0.10718826 0.004084198 0.009982595 0.027340524 0.0116203725 -0.082434125 0.047016554 -0.09001918
-0.043510307 -0.05471238 -0.05392477 0.011603159 0.020387309 0.062334873 -0.0810583 -0.04098994
-0.006099753 -0.04171393 -0.082857996 0.0035424805 0.049083337 0.021107502 -0.08539057 1.2759844e-05
0.07406782 -0.015186158 0.02106379 -0.103229664 -0.017993663 -0.0070530954 -0.039256103 -0.053898938
-0.10502735 -0.034453936 0.0279015 -0.019002832 -0.029416751 0.02419234 0.056854628 -0.06384344

fc2.bias f4 [64]
00000000: c250 353e 8180 c0bc 412d 6bbc 6495 b03d
00000010: 7ef3 c2bd fa97 df3c d0db 05bd 0b7b 113c
00000020: 7042 a3bb b617 57bd 9e05 fe3d c9fb 863c
00000030: c0f2 26be bc22 983d f494 19bc e1ec 363d
00000040: ba46 a33c c664 3dbd ec6e 743b d7a2 79bd
00000050: d4c9 44bd 22e5 a8bd e5fd 273d b274 fd3d
00000060: 2e6e ef3d 48fb fabd ff00 f2bd 6573 5eba
00000070: c315 3a3e 5b61 8f3c 701b a93d 379c 0bbd
00000080: 35a7 4c3e 635c 23bd 6487 e73c ae60 6bbd
00000090: ce29 a33d 525c 9ebb 5a0a 0e3d f982 21be
000000a0: ee82 88bc 3f86 ee3b 905a 66bd f091 5f3c
000000b0: a266 e93c 1a73 873d 1360 25bc 1b60 aa3d
000000c0: b02d 74bd 3587 37bb 70a1 92bd 487d 7fbc
000000d0: b04f f6bc 2017 a1bd 6fb0 4abd b300 113e
000000e0: 472a 553d ea19 723d 6b0f ac3d 961f e73d
000000f0: e790 8e3d 00f4 da3d d700 c93d 6cc3 d83c
0.17706588 -0.023498775 -0.014354051 0.08622244 -0.09519099 0.027294148 -0.032680333 0.008879433
-0.004982285 -0.052512847 0.12403415 0.016477482 -0.1630354 0.074285 -0.009373892 0.0446595
0.019931186 -0.046238683 0.003729756 -0.06094631 -0.04804404 -0.082468286 0.041013617 0.123757735
0.11690937 -0.12254959 -0.11816596 -0.0008485823 0.18172364 0.017502477 0.082571864 -0.034084525
0.1998566 -0.03988303 0.028262801 -0.057465248 0.07966958 -0.004832783 0.03467784 -0.15772618
-0.016663995 0.007279187 -0.05623871 0.013645634 0.028491322 0.06613751 -0.010093707 0.08319112
-0.059613883 -0.0028004174 -0.07159698 -0.015593834 -0.030067295 -0.07865739 -0.049484666 0.14160423
0.052042272 0.059106745 0.08401378 0.112853214 0.06961232 0.106910706 0.09814613 0.026460372

fc3.weight f4 [32, 64]
00000000: c8ba 5d3e 435c bd3d 80cf 16be 4ca1 56bb
00000010: 71dd 5bbd 61a1 373e 3e8d 423e 9339 a63d
00000020: a04c c53d b10b e73b e652 0b3e 6bcc debd
00000030: b917 733e c930 553e f5a6 703d 2543 e1bc
00000040: 8f62 54bd 620b 2ebd d504 493e 1eb8 22bd
00000050: b097 e13d 5681 d7bd 5e00 22bd 259e 223d
00000060: 3a60 093d c483 65bd 43ba a0bd e99e 4bbd
00000070: 2ada 1a3e 9c73 c23c 3571 013e 088f ba3d
00000080: c7c8 e43d e40a a93e 4929 d23d 745c 2e3d
00000090: 51e8 9e3e b204 25bd 2728 55bd da8b 2d3e
000000a0: 4f7e eb3d d65d 2cbc 9045 07bc 8f86 153d
000000b0: 86b3 61bd 4b05 963d a1cc ecbd b83b 00bc
000000c0: eb4c 30bd 0c8a a23d 4c98 f2bb 6ee1 cb3d
000000d0: 75c0 243e 8e3c 92be 7000 b33d 3628 b93c
000000e0: 9617 dfbd b1ac 4d3e 630c ee3b 93e6 8a3e
000000f0: 0351 893d c49b a83e f3e4 383c 255c cdbd
00000100: 7685 193d 0f5c 42bd ef71 66bd 2bf7 043e
00000110: 20e6 c9bd 7633 b43d 661f e7bd 024d 333e
00000120: 5cfd c1bd d9ca a63d 38b5 ae3d eb9c e2bd
00000130: 4efa 76bd 3993 923d 258e d93d 5977 043c
00000140: 6ae9 e7bd 1f51 3a3e 5c95 223d dd38 8d3d
00000150: 1eae bbbc b06d b9bd 6ed5 c93d 6a36 fe3c
00000160: b917 bf3c 3fb3 8cbd 2bf2 9a3d a74f ddbd
00000170: b890 453e 66ed 7cbc 11f4 d93d 71b1 ad3a
00000180: c3df 38bc 3493 813d 7736 69bd 55a4 083d
00000190: 5a5d e43c 9891 2f3b f07c d43d dfd8 303e
000001a0: 5042 913d 312a 2e3e 4a13 e03d 5b46 4dbd
000001b0: a947 08be 0c15 1e3e 4d87 b9bc 0a65 873c
000001c0: 6ac4 bdbd 5a2b 763d e116 9f3d 8aa2 c33d
000001d0: 4327 8b3d 187c 64be c5ef 033e 5ee3 1f3d
000001e0: 5372 4ebe 984c 543e 2174 be3d 2731 7c3e
000001f0: 4efa 113e 050e 1e3e 27d5 6b3d 5b36 b63b
00000200: 414a 59be 2a9f dbbd 13fb 1c3e 5563 d3bc
00000210: 0032 f1bd 2991 a7bd 31b1 cf3d 9496 f9bd
00000220: 00e2 e3bc d400 1ebc a778 723d 525a 0e3e
00000230: a94d 47be d32b cc3d fcb3 8c3d 02af 923b
00000240: 15f4 f23d 1760 773d 0c21 8d3d 3b25 b4ba
00000250: c0d8 363e 18fd bebd 7613 a2bc 7d65 0a3e
00000260: bc7f 8c3d df0b 203c 1625 0c3e acbb d6bb
00000270: 9c38 343e a22c c53d cc3c 06bc 60af 1ebe
00000280: 01f1 203e 015f 35be 2f92 67bc f921 1a3c
00000290: ae6d 1c3d fd44 1b3d 0ffe c43b d7db 37bb
000002a0: 2196 fdbd ee65 42bc 40c8 5a3d efff bd3c
000002b0: c495 a23d 60c7 88bd 318c 803d d9f3 833b
000002c0: 2d03 f93c fe5f 8fbd d439 34bd 91d6 293e
000002d0: 6bc6 6d3d afb3 6c3e 1844 e03d feba 683e
000002e0: 0b3a c13d 29ef e5bd 9d53 e0bd 4d09 e2bc
000002f0: 8b56 cebd cdad d63c e104 273e 9adb 843c
00000300: d28a 433e 329f b5bd 6c11 d43d 6f2b e9bd
00000310: 8827 bcbd 1a1d 273e bea3 24be b1ff 313e
00000320: a819 ee3c 2c64 60bb 637f 0e3d 3321 da3d
00000330: fcb4 3b3e ed8c e03d 39c9 28bb 0bf2 943d
00000340: 6959 c1bd a11e bf3d efa7 e5bd 03a4 a23d
00000350: 6dd0 47bd 50ab 48bc e419 003c ca84 6bbd
00000360: b1a9 103e ba0a 9fbd 95d9 75bd db14 223e
00000370: e441 153e 171f 3bbd d228 f0bc 0d93 3d3e
00000380: b0fc 69bd 3bc4 793e bf21 f2bc d903 dbbd
00000390: 2207 d1bc fa1b f63c 4d38 033c d8fc 02bc
000003a0: 9f84 413e 4140 94bd 68c1 f13d 05d2 563c
000003b0: a646 db3d ff59 f93d ca50 153c 4fff eebd
000003c0: 8db6 353a 363b 25bb 4300 7f3d f42d 9e3d
000003d0: bc54 1b3e c338 4fbe 87de bfbb 8407 82bd
000003e0: 1dea 26bd 09f1 fb3d 2195 ed3c 0f15 733e
000003f0: 37da 073e 1b8a 263d 4802 e9bd a7c0 f63c
0.21653283 0.09246113 -0.14727592 -0.003274995 -0.05367798 0.17932655 0.18999192 0.0811645
0.09633756 0.0070509543 0.13605842 -0.108788334 0.23739518 0.20819391 0.058752973 -0.027497837
-0.051851805 -0.042491324 0.1963075 -0.03972637 0.1101526 -0.10522716 -0.03955113 0.0397016
0.033539034 -0.056033865 -0.078480266 -0.049712095 0.15122285 0.023736767 0.12640841 0.09109312
0.11171108 0.3301612 0.10261781 0.04256864 0.31036618 -0.04028768 -0.052040245 0.1694788
0.11498701 -0.010520419 -0.008256331 0.03650528 -0.055102848 0.07325228 -0.11562467 -0.007826738
-0.043042105 0.079364866 -0.007403409 0.09955107 0.16089042 -0.28561825 0.08740318 0.022602182
-0.108931705 0.20085408 0.00726466 0.2712904 0.06704905 0.3293134 0.0112850545 -0.10027341
0.037480794 -0.047451075 -0.056261 0.12984912 -0.09858346 0.08798878 -0.11285286 0.17509845
-0.094721526 0.08144159 0.085306585 -0.11065086 -0.060297303 0.07156987 0.10622815 0.008085095
-0.11323817 0.18195008 0.03969322 0.068956114 -0.022910174 -0.09054124 0.098551616 0.031031806
0.023326742 -0.06870126 0.07565721 -0.10806208 0.19293487 -0.01543746 0.10642255 0.0013251734
-0.011283818 0.06326905 -0.056936707 0.033359844 0.027876545 0.0026789661 0.103753924 0.1727023
0.07092726 0.17008282 0.10941179 -0.050115924 -0.13308586 0.15437716 -0.022647524 0.016527671
-0.09265979 0.060099937 0.07768036 0.09552486 0.06794598 -0.22312963 0.12884434 0.039035194
-0.20160799 0.20732343 0.092994936 0.24628125 0.1425564 0.15435036 0.057576325 0.005560679
-0.21219732 -0.107237175 0.15330152 -0.025804201 -0.11777115 -0.08181984 0.101412185 -0.121869236
-0.027817726 -0.009643752 0.059197094 0.13901642 -0.19463219 0.09969296 0.06870267 0.004476429
0.11862961 0.060394373 0.06891069 -0.0013744006 0.17856121 -0.093256176 -0.01978467 0.13515277
0.06860301 0.009768455 0.13686022 -0.006553134 0.1759972 0.09627654 -0.008193206 -0.15496588
0.15716936 -0.17712022 -0.014133974 0.009407514 0.038190536 0.03790759 0.0060117315 -0.0028054619
-0.123821504 -0.011865122 0.05341363 0.023193328 0.07938722 -0.06678653 0.062767394 0.0040268716
0.030397022 -0.07000731 -0.04400046 0.16585757 0.058050554 0.23115419 0.10950488 0.22727582
0.09434899 -0.11227257 -0.10953448 -0.027592326 -0.100751005 0.026205922 0.16310455 0.016217995
0.19095924 -0.08868255 0.103548855 -0.113852374 -0.091872275 0.16319695 -0.16078088 0.17382695
0.029064968 -0.0034239395 0.034789454 0.106508635 0.18330759 0.109643795 -0.0025754704 0.072727285
-0.09440882 0.09332014 -0.112136714 0.07941439 -0.048782755 -0.012247875 0.007818673 -0.057499684
0.14127232 -0.07765718 -0.060021956 0.15828268 0.14575917 -0.045683946 -0.02931634 0.18513127
-0.057125747 0.24391262 -0.029557107 -0.10694093 -0.025516097 0.030042637 0.008009029 -0.007994853
0.18898247 -0.07238818 0.118044674 0.013111596 0.107068345 0.121753685 0.0091135 -0.1166979
0.0006931804 -0.0025212294 0.06225611 0.077236086 0.15169042 -0.20236497 -0.0058553847 -0.0634909
-0.04075061 0.12301833 0.029001774 0.23738502 0.13266836 0.04065905 -0.11377388 0.03012116

fc3.bias f4 [32]
00000000: 7595 393d 029c d23d d0b3 7a3d edc1 d13d
00000010: f900 6f3e 972d 183e c21e 63bd b51d 143e
00000020: c0e4 5abd 2839 29bd a5d3 06be e0f9 48bc
00000030: 585e 163e a4c4 c8bd b54a f73d 535b 3a3d
00000040: 4435 3ebd 2436 b1bd 8086 863c 3d3f cd3d
00000050: 2807 e3bc 6f19 ebbc 7004 13bc 2fb2 0a3e
00000060: 8600 c23d 2301 e2bd 82cb acbb e29d 2b3e
00000070: d1b1 8d3d 38c8 ff3c 5380 c03d 0faf 3d3d
0.04530855 0.102836624 0.06120664 0.102420665 0.23340215 0.14861141 -0.055449255 0.14464457
-0.05344081 -0.041314274 -0.13166673 -0.012266606 0.14684427 -0.09803131 0.12074796 0.04549725
-0.046437517 -0.08652905 0.016421556 0.10021827 -0.027713373 -0.028698651 -0.008973226 0.13544534
0.09472756 -0.11035373 -0.0052732835 0.16759446 0.069186814 0.031223401 0.09399476 0.046309527

fc4.weight f4 [16, 32]
00000000: 8d6f 8abc 22e1 953d d943 d0bd 1c49 7dbd
00000010: 1335 5a3e 34e1 b5bd a023 2c3c 0bb9 9d3d
00000020: 2821 0bbe dc2c 44bd 43b7 103e 8e94 2abe
00000030: 8637 493b cc77 913d 77b2 893d 4ecb ddbe
00000040: f0e4 4f3c 4ac4 bb3d 08f2 7d3d a5dc 1dbb
00000050: a8e1 203d 3044 3ebe 0da6 213e eeb6 b7bd
00000060: 251d 55be 95e4 403d 8421 f7bd dd83 ea3a
00000070: 1e8e 263e 30ab 093d 6a02 433d cb0d 6a3d
00000080: b8a7 7fbc b6f9 243d 923a 62bd c1d3 263e
00000090: 4595 b63c 26e3 77be 3219 5ebd b421 373d
000000a0: 586d 01bd 7bad ba3d e3c6 333e b66f b23d
000000b0: af97 bfbc 9e2a 17be 7eff 09bd 1bfb 10bd
000000c0: b1a1 323d 902f 0fbe c9fb 163e a148 ac3d
000000d0: 54c0 693d 4bec 39be 85b7 1dbe fc2b d5bd
000000e0: a5cf a3be 588b 823e 27f8 70be d6f0 b53d
000000f0: 9e4d ad3d a9b9 32be e898 08bd 3dac 54be
00000100: 9de5 ef3d 270d 5abd 00ca c23d 9ff6 063e
00000110: e2a7 aa3d 0b91 b5bd d0be 31bd d542 443e
00000120: 40e5 213b 3eeb f23c ecbd 23be d882 bcbc
00000130: e3b9 683e fbeb 4abd 479a ae3d 81d8 853d
00000140: 3f5f 7d3c 5d31 2bbe fb5e 023e 593a 7cbd
00000150: efd5 27be be1f b73d 5880 8e3c dcf8 d1bc
00000160: 639c 9abe 163b 55bd e92c 263e c65c 2bbe
00000170: af88 48be f0b7 453e 270a 1e3d 5d99 743e
00000180: 7f75 563e 5615 6e3e 0aa3 a5bd 7ba1 3b3e
00000190: 9157 773e 30d4 7cbe f7f6 9a3c 1adc 413c
000001a0: 08af 04be e9d9 babd 1d1d 0ebe 8a63 a23d
000001b0: 6811 54bd d0f5 cdbd 3e4d 95bd 560f 32be
000001c0: d945 893d cc95 0abc 5a0a 85bd 2f3f a23e
000001d0: 03d4 1e3e 52eb 31bb 0096 27ba 6286 283e
000001e0: 85f1 1b3e d8b1 a83d 6b52 a5bd 97da 873e
000001f0: cc4a 943c 61a3 22be 4eea 253e 17ff 33be
00000200: cd69 a93c f822 9fbd d272 6fbe a777 0e3e
00000210: 0105 6ebc 079f 85bc 98fc 853d 7c5e 89be
00000220: 6d60 a2bd ad82 c6bd a141 4b3e e8dc 53bd
00000230: 0c1d 1fbe bee4 213e 02e5 03bf 1053 7e3c
00000240: 557d 6c3e 92fa 4cbd a0d7 233d a144 0a3b
00000250: 809a 0b3d f05b 7f3e 4a33 c3bd c62a dd3c
00000260: dcbc ec3e 2d8a 7ebc d71a 493e 55da a43e
00000270: c099 103e 200b 79bc 1f49 84bc 3a8a bf3d
00000280: dfb3 41be 8bc3 043d 06ff 4a3e 737e 6ebe
00000290: 399c 10be f22c 593e f09c bcbd abba 5c3e
000002a0: 6d7d 1a3e 78de 3a3e 7d14 0e3e 2632 d73d
000002b0: d241 97be ac9b 1c3d d2be 5a3e d59f 6abd
000002c0: 78a4 d43d f546 e6bd 3ddd a8bd 34b3 abbe
000002d0: 887e 82bd 1213 87be 791f 183e db0e 4f3d
000002e0: ea42 6dbe d63b 193e 1dc6 9f3c b04c 51be
000002f0: 3a07 a73d 03d1 393c 0e07 74bc 8956 5abd
00000300: 87f5 0f3c 738d 6abd b9ea b6bc 68c4 ed3d
00000310: a67a 053d b8c1 d23c 93e1 a8bd 0173 c13c
00000320: d13a 8e3b 39d6 cebd 3125 18be 0024 6e3a
00000330: 81cb 723e 5129 153e 3bfd 893d 08b5 71bc
00000340: 41b7 94be c0ec f4bd 2c05 24bd 7319 fb3b
00000350: b465 f6bd 1e8e c6bc 804d 99bb b739 4e3e
00000360: a71e f03d 7432 17be 5d1b e6bd ba23 f4ba
00000370: 4001 0fbe eb2b d6bc 146d 0e3e d5e0 18bc
00000380: f22a afbc 2235 093d ec47 b53c 2697 46be
00000390: 180c a1be 9c53 2f3e a21d ac3d e812 b73d
000003a0: 8ede e3bd 676b 043e 6492 5c3d 2aca c93d
000003b0: ea84 5a3e cf20 cbbc d0df 923d 9ea2 a13e
000003c0: c45a 6d3d 8fb9 9dbe 00ba c939 55e5 b83d
000003d0: d003 16be b13c 093c 60c0 5a3d d263 85be
000003e0: 21ef cd3d 61ab c7bd ef20 923e 0c58 a03d
000003f0: f2b1 19be ac78 193d 26fc 353e 5e1a 053e
-0.016898895 0.07318331 -0.10169191 -0.0618373 0.21309309 -0.08880845 0.010506541 0.0770131
-0.13586867 -0.047894344 0.14132409 -0.16658232 0.003070326 0.071029276 0.067234926 -0.43319172
0.01268886 0.091682985 0.061998397 -0.0024087813 0.039277703 -0.18580699 0.15786 -0.08970438
-0.20811899 0.047092993 -0.120669395 0.0017892082 0.16265151 0.033610523 0.047609724 0.05714206
-0.015603952 0.040277205 -0.05523164 0.16291715 0.022287974 -0.24207744 -0.054223247 0.044709876
-0.03159842 0.0911512 0.17556338 0.087127134 -0.023387758 -0.14762351 -0.033690922 -0.035395723
0.043611232 -0.13982987 0.14744486 0.0841229 0.057068184 -0.18156545 -0.15402038 -0.1040878
-0.31994358 0.25496936 -0.23532163 0.088838264 0.0846207 -0.17453636 -0.033348948 -0.20768829
0.11713717 -0.0532352 0.09511185 0.13180016 0.08332802 -0.088655554 -0.043394864 0.1916612
0.0024703294 0.029653188 -0.15990418 -0.02301161 0.2272716 -0.049541455 0.0852552 0.065354355
0.015464603 -0.1671805 0.12731545 -0.061579082 -0.16390203 0.08941601 0.017395183 -0.02563136
-0.3019744 -0.052058302 0.1622807 -0.16734609 -0.1958339 0.19308448 0.0385839 0.23886628
0.20943259 0.23250327 -0.08087738 0.18323319 0.24154498 -0.24690318 0.01891659 0.011832261
-0.12957394 -0.09123594 -0.13878293 0.07929142 -0.051774412 -0.10056651 -0.072901234 -0.17388663
0.067027755 -0.008458566 -0.06496115 0.3168883 0.15510564 -0.0027148318 -0.0006392896 0.16457513
0.15228851 0.08237046 -0.080723606 0.26533958 0.018102072 -0.15882637 0.16202661 -0.17577778
0.020680333 -0.07770342 -0.23383644 0.13912831 -0.01452756 -0.016311182 0.06542319 -0.26829898
-0.07928548 -0.09692893 0.19849254 -0.051724344 -0.15538424 0.15809914 -0.51521313 0.015522733
0.23094685 -0.05004365 0.040000558 0.0021098035 0.03408289 0.24937415 -0.09531267 0.026997935
0.46237838 -0.015535873 0.19639145 0.32197824 0.14121151 -0.015200406 -0.016148148 0.093525365
-0.18916272 0.032413047 0.19823846 -0.23290424 -0.14122094 0.21208552 -0.09209621 0.21555583
0.15086909 0.18248928 0.13875003 0.10507612 -0.29542404 0.038234398 0.21361855 -0.057281334
0.103829324 -0.11244003 -0.08245323 -0.3353516 -0.0637179 -0.26381737 0.14855756 0.050551277
-0.23170057 0.14964232 0.019503647 -0.2043941 0.08155675 0.011341336 -0.01489426 -0.053305183
0.008786566 -0.057263803 -0.022328721 0.11609727 0.03258767 0.025727138 -0.0824615 0.023614408
0.0043405076 -0.100994535 -0.14857937 0.0009084344 0.23710443 0.14566542 0.06737753 -0.014752634
-0.29046062 -0.11959219 -0.040043995 0.007662946 -0.12031117 -0.024237689 -0.004678428 0.20139204
0.117245965 -0.1476534 -0.11235688 -0.001862637 -0.1396532 -0.026143989 0.13908798 -0.009330948
-0.021382783 0.033497937 0.022129022 -0.19393596 -0.3145454 0.17121738 0.084040895 0.08939153
-0.11126433 0.12931596 0.053850546 0.09853013 0.21339765 -0.024795918 0.07171595 0.3156938
0.05794789 -0.30805632 0.00038476288 0.090281166 -0.14649892 0.008376286 0.05340612 -0.2605272
0.10055376 -0.09749485 0.2854075 0.078292936 -0.15009287 0.037468597 0.17771968 0.1299834

fc4.bias f4 [16]
00000000: a755 853c 6103 b8bd 1d38 8cbd 87a8 023d
00000010: 9db6 383e d302 9abd a9c1 cb3d d36f 003e
00000020: f45e 3bbb 8d07 883d d4cc b6bd 879c 123e
00000030: fa5e 033e 5787 053e 7b4b 413e 3471 963d
0.016276194 -0.089850195 -0.0684664 0.031899 0.18038411 -0.0752007 0.09949047 0.12542658
-0.0028590532 0.06642065 -0.089257866 0.14317523 0.128292 0.1303991 0.1887645 0.073458105

fc5.weight f4 [2, 16]
00000000: 96c1 a1bc 9bb9 fc3e b767 a23d ef8b bdbe
00000010: b78b 133d 4614 ebbe d39b 15be 32ac 8f3e
00000020: 6019 b33d b9f6 46be 0c2d a13e 1897 1f3e
00000030: 4f50 c63e bc2e 0bbe c7b1 47bd 493c e93d
00000040: f042 863e e427 f43c 641f ee3d bf10 a8bd
00000050: a50b ecbe 4e6c c53e 5a99 ba3e 9bcd 323e
00000060: aa69 03be dc26 163e aec1 7e3e 69fb aebe
00000070: 17c2 09bc ed22 a73e 4619 b33e 36c4 9d3e
-0.01974563 0.49360356 0.07929938 -0.37020823 0.036021914 -0.45913905 -0.14610223 0.28061062
0.08745074 -0.19430055 0.3147968 0.15584981 0.38733146 -0.13592046 -0.048753526 0.113884516
0.26222944 0.029804178 0.11627081 -0.08206319 -0.46102634 0.38559192 0.36445123 0.17461245
-0.12833276 0.14663261 0.2487857 -0.34176186 -0.008408091 0.32643834 0.3498022 0.3081376

fc5.bias f4 [2]
00000000: 5dd6 86be 190f 643e
-0.2633542 0.22271384
