models/NN-Scalability-three-fluorophore-trained-model.pth (torch, 60762 bytes, 10 tensors)

fc1.weight f4 [128, 24]
00000000: 05bf 203e ed56 d13d bfc8 3fbe bd5b 813e
00000010: 16f2 6a3e 715f 113d 47a7 b13d d3f9 8dbe
00000020: b037 03be d91e e8bc f3fc 11be b7cb f73d
00000030: 1370 29be bc1a 873b f39a 78bd ac3d fabb
00000040: c456 dabd 0228 903d 278b 483c 558d d4bd
00000050: 1e85 fe3c a057 a5bd 2e20 0abe 3c9a 633e
00000060: ac16 c33d af56 b53c 65d2 e9bc 670d 39bd
00000070: 8e8f 71be bb55 2e3e 75cf c9bd 7b50 f7bd
00000080: 2044 15bd f144 4abd 8e16 34be b9c7 1cbd
00000090: d299 3c3e 412e e13d b896 65be 1a59 7b3d
000000a0: 02ad ecbd 06cf fa3d 7b17 1b3e b0bf 463e
000000b0: a678 3c3e cc1a 4e3e e8a7 0abe a9a8 673d
000000c0: 5866 1f3e ff94 6bbd 8831 ee3d 8b81 37be
000000d0: 2328 203e 5143 2ebd 8a01 283e 29d1 c63c
000000e0: 42ab 3a3e 225a 983c a226 fdbc fc88 153e
000000f0: b185 97bd b6ff 173e 6450 833d 32e2 61be
00000100: b945 463d 0fa8 08be cdfe 1b3b 38be 57be
00000110: fdb6 a43d f7f9 b93d 26d7 043e 5250 51be
00000120: b1ba f2bd f15d dc3d c320 9bbe b894 34be
00000130: 8d68 773e adaf 833d cbe0 2a3c f749 3fbe
00000140: 3f0d f43c 965e 34be 7bad 3dbe af96 1cbd
00000150: 7ac9 80bd 2156 e43d 8053 60bd d43a 69be
00000160: 0b6c d3bd 619a ee3c 5068 ef3d d9ea 38be
00000170: 037e 413e 0c77 9d3d 36e4 c53e 681c 0ebe
00000180: db0e 3d3d d6ef 693d b806 09be 711f 613e
00000190: c535 e23d 85b7 5e3e 76d0 42be ad3f 4d3e
000001a0: 7a5d c13d d7b5 fc3d 61bd 913d 3afa 3ebe
000001b0: dbcd eebd 7207 853d f64b 933d 72f3 26be
000001c0: c8e4 c8bd 182b d3bd c58e 1a3e 04e8 903d
000001d0: 57ee 17bd 3646 02be 8739 403d f557 65be
000001e0: 28ca 8abd 0102 8f3e 5571 703e 8da3 28bd
000001f0: 864e 233e a42e 85bd 732a e63d 597d 6f3e
00000200: 83f6 ea3c 1a18 85bd d198 86bd f51e 6fbe
00000210: 4443 643d 3db4 31bd edfd a73d 2419 843d
00000220: f92e 26be f1f5 113e 746a 113e c6ad f23c
00000230: 6257 72be ac87 a3be 51bc eabb 531d 6bbd
00000240: 1f63 0f3d 2745 aebd b710 46be f0a7 623c
00000250: 3946 8f3d c2a2 60be 8a08 3d3e c93c 5ebe
00000260: 4cda 3b3e efe3 ed3d b147 423b a379 9cbd
00000270: a434 23be c64c a23d c2c6 14be 3530 7a3d
00000280: eb32 c83d 1d32 453e 2208 5e3b 122e dd3d
00000290: eb2d 9c3d 9264 d73d 6374 0ebe fe12 3d3e
000002a0: 0eee 8ebe c920 91be 8ea6 0a3e 36d2 1e3e
000002b0: e736 513e 265c 65be 4ca5 bcbe 069d 12be
000002c0: 4a86 46bc 7fb0 813e 7391 6fbe c7d4 04be
000002d0: d3d2 40bd cad9 f9bc 69b5 49be 9c06 a03d
000002e0: 0756 45bd acdd c73e a62f 61bd 02c5 143e
000002f0: ba08 f5bc 69dc 3a3e 6575 cd3d 2831 b43e
00000300: 924f 44bc 6066 47be c442 aa3e b651 4cbe
00000310: 2a00 96be fb51 36be f85f d93d 7037 713e
00000320: 7912 9bbd 0957 36be 5b30 8cbd d5b1 0abe
00000330: 3581 623e f76e 843e c4c5 973d c7c4 493e
00000340: 5a90 15be b783 fc3c 5081 9cbd 43f9 dbbd
00000350: 0647 9f3d ec59 bd3d 2b5e b2bd 5d34 833d
00000360: 3429 973e 5403 c53d 613d 1f3e 625b 0dbe
00000370: c20b c13e 4590 853e c07e 27be 1bdd b23e
00000380: 890e b5bd 17ef 9dbc bdd1 5c3e dd7b 18be
00000390: e2ee 43be ebd9 e8bd 043a 583e 0587 61bd
000003a0: 78ad 80be f12f 87bc 7cca bbbc aac6 febd
000003b0: 1223 713d f77d 76be ae99 35bc a39f 4bbe
000003c0: e4ce 0dbd b07c 5dbe bd73 99be b33e 4bbd
000003d0: f1c4 193e 929a dbbd 7f17 21be cec6 8cbe
000003e0: e492 4c3c b67d 85bd b70e 483e 3ce5 7b3d
000003f0: 202b 253e 9166 8c3e cb6c 5d3c 1222 5a3e
0.15697868 0.10221658 -0.18728922 0.25265303 0.22943911 0.03549141 0.08674484 -0.27729663
-0.12814212 -0.028335022 -0.14256649 0.120994024 -0.16546659 0.00412306 -0.060694646 -0.0076367464
-0.106610805 0.07038881 0.012240208 -0.103785194 0.031069335 -0.08073354 -0.13488838 0.22226804
0.09525809 0.02213606 -0.028542707 -0.045178797 -0.23589918 0.17024891 -0.098540224 -0.12075897
-0.036441922 -0.049382154 -0.17586729 -0.038276408 0.18418053 0.1099515 -0.22420776 0.06136427
-0.11556436 0.12246518 0.15145676 0.1940906 0.18405399 0.2012741 -0.13540614 0.05655733
0.15566385 -0.05751514 0.11630541 -0.1792051 0.15640311 -0.042544667 0.16406837 0.024269657
0.18229392 0.018597666 -0.03090221 0.14603037 -0.073985465 0.1484364 0.06411818 -0.22058943
0.048406336 -0.1334536 0.0023802996 -0.21068656 0.08042715 0.0908088 0.12972698 -0.20440796
-0.11852015 0.107601054 -0.30298433 -0.17634857 0.24160977 0.06429992 0.010429571 -0.18680559
0.029791472 -0.17614207 -0.18523209 -0.03822964 -0.062884286 0.1114924 -0.05476713 -0.22776347
-0.10323342 0.029126348 0.11689818 -0.18058337 0.18895726 0.07688722 0.38650674 -0.13878024
0.046156745 0.05711349 -0.13381469 0.2198465 0.11045412 0.21749695 -0.19024834 0.20043822
0.09441657 0.12339371 0.07116199 -0.18650141 -0.116603576 0.06495561 0.07192223 -0.16303805
-0.098092616 -0.10310954 0.15093525 0.070755035 -0.037092533 -0.12722096 0.046929862 -0.22396834
-0.067768395 0.27931216 0.23480733 -0.0411716 0.15947923 -0.065030366 0.11238565 0.2338766
0.028682 -0.06498738 -0.06572116 -0.23351653 0.055728212 -0.04338478 0.082027294 0.06450108
-0.16228856 0.14253975 0.14200765 0.029623877 -0.23666146 -0.31939447 -0.0071635623 -0.057401013
0.03500664 -0.085092835 -0.19342314 0.013833985 0.06995816 -0.21937087 0.18460289 -0.21702875
0.18344992 0.116157405 0.0029644782 -0.07640388 -0.1593805 0.079247996 -0.14528945 0.06108113
0.09775337 0.19257398 0.003387936 0.10799803 0.07625946 0.10517229 -0.13911586 0.18464276
-0.27915996 -0.28345326 0.13540098 0.15509877 0.204311 -0.22398433 -0.36844862 -0.14317712
-0.012116978 0.25329968 -0.23395328 -0.12971793 -0.047076058 -0.030499358 -0.19698109 0.07813761
-0.048177745 0.3903631 -0.05497708 0.14528278 -0.029911388 0.18248142 0.10032157 0.35193753
-0.011981862 -0.19472647 0.33254063 -0.19953045 -0.29297 -0.1780471 0.10614008 0.23556304
-0.07571883 -0.17806639 -0.068451606 -0.135444 0.22119601 0.2586591 0.07410768 0.19703971
-0.14605847 0.030824525 -0.07641852 -0.10740902 0.077772185 0.09245667 -0.08709367 0.06406472
0.29523623 0.096197754 0.15550758 -0.13804391 0.37704283 0.2608663 -0.16356945 0.34934315
-0.08840663 -0.019279046 0.21564384 -0.14891 -0.19134095 -0.113696896 0.21115881 -0.055060405
-0.25132346 -0.016502352 -0.0229237 -0.12440236 0.058871336 -0.2407149 -0.011084003 -0.19885115
-0.034621134 -0.21629596 -0.29971114 -0.04962034 0.15016533 -0.10722841 -0.1573162 -0.27495426
0.012486193 -0.06518118 0.19536863 0.06149791 0.16129732 0.27422002 0.013514708 0.2130206

fc1.bias f4 [128]
00000000: 0781 903e 433f 50bd 00a1 893e 9dc3 ee3d
00000010: 6504 183e ce0a 9dbd 8690 a13d f000 183e
00000020: 59e3 573e 1995 183c 16e2 1b3e bd04 aabd
00000030: f9de 213e f43a ccbc 287a 9e3e 7d2f 42be
00000040: d331 c13d 8566 3abc 1377 31bd ecfd 3bbe
00000050: 5ae8 8d3d 8c1e b1bd ab91 f4bc c17d 4bbe
00000060: 4921 2e3e e0b2 f53d cac2 693d 3abb 783e
00000070: 279a 593e 5f49 80be ea60 a63e d6e1 04bd
00000080: 87f2 2cbe 0b06 61bc aa9b 60be efd5 dfbc
00000090: 04e7 0c3d c79e 5a3e a67f aa3c 4e9b 7bbd
000000a0: d726 e13c 7db8 cb3b 254b 0dbd 39ea 76be
000000b0: 87b9 3cbe c7e9 81bd aa41 25be 6467 b8bd
000000c0: 5260 b9bd 5c14 5c3d 827a 2f3e 022e fa3c
000000d0: 35ff 8ebd 52d7 c53d a7d2 21bd cfe8 48be
000000e0: a93d 10be fd2c e13c 8eea 42be 78c7 183e
000000f0: 6cdb b93d d75c b0bd 8cee ec3d 651f 253e
00000100: adc7 8abd 3b96 523e f393 82bd bca6 813d
00000110: d0e7 b6bd ea73 a6bd 8176 32be 097d 41bd
00000120: 5b17 24be 17f2 64be eb4b 7ebd 4770 ffbd
00000130: 07a0 0c3d cb0d b83d f1a7 80bd 4349 dabd
00000140: 0019 4abd 90a8 d6bc 59fe 45be a273 b73d
00000150: a316 b2bd 4b40 e43d fe4e 89be ac7f 6d3e
00000160: e3f7 84bd f65b f93d 2013 883d abf4 923e
00000170: f643 c1be a3c5 4fbe 72bc 083c dda1 563e
00000180: 9be4 5a3e e8d6 aa3d 0a97 bbbc 8e51 173e
00000190: 869b 053d b5ea ed3d 89c0 143e 4edc 08be
000001a0: b626 8ebe a231 7fbd f546 d63d b356 13be
000001b0: 6ae4 2d3e fb26 983e 49c8 883e 1c7d 05be
000001c0: e976 4e3e 7063 953d a704 72bd 6b37 7d3e
000001d0: c97e 383d 6d40 ae3d e393 b83d 9cc5 0d3e
000001e0: 2138 53bd 9b14 39be 09d3 bebd ef87 153e
000001f0: 47ae 0abd f77e 9c3e 6129 623d 53b0 343e
0.2822344 -0.05084158 0.26880646 0.11658404 0.14845426 -0.076680765 0.07888894 0.14844108
0.2108282 0.009312891 0.15222964 -0.08301685 0.15807714 -0.024930455 0.30952573 -0.18963428
0.09433331 -0.011376982 -0.04332645 -0.18358582 0.06929083 -0.086484045 -0.029854616 -0.1987219
0.17004885 0.11997008 0.05707053 0.24290171 0.2125021 -0.25055978 0.32495815 -0.032441936
-0.16889392 -0.013734351 -0.21934381 -0.027323691 0.0344 0.21349631 0.02081282 -0.061427407
0.02748434 0.006217061 -0.03449549 -0.24112786 -0.18430148 -0.063434176 -0.1613833 -0.09004095
-0.09051575 0.053730354 0.17136577 0.030539516 -0.06982271 0.0966021 -0.039507534 -0.1962006
-0.14086021 0.027487272 -0.19034788 0.14919841 0.090750545 -0.08611458 0.11568937 0.16125257
-0.067763664 0.20565121 -0.06375875 0.0633063 -0.089309335 -0.081275776 -0.17428018 -0.047238383
-0.16024534 -0.22357975 -0.06208412 -0.12472587 0.0343323 0.08987006 -0.06282032 -0.10658505
-0.049340248 -0.026203424 -0.19335307 0.08957602 -0.08695724 0.111450754 -0.2681808 0.23193234
-0.06492593 0.12175743 0.06644273 0.28702292 -0.37747163 -0.20290236 0.00834571 0.20960183
0.21376269 0.08341771 -0.02289917 0.14777204 0.03261902 0.116170324 0.14526571 -0.1336529
-0.2776391 -0.062303193 0.10462753 -0.14388542 0.16981664 0.2971724 0.26715305 -0.13036007
0.20162548 0.07294357 -0.059086468 0.24728172 0.045042787 0.08508382 0.09012582 0.13844913
-0.0515672 -0.18074267 -0.093175955 0.14602636 -0.03385761 0.30565616 0.055215243 0.17645387

fc2.weight f4 [64, 128]
00000000: 2b41 c83d 9c99 b5bd 7bdd 52bd f62c 5c3c
00000010: 3b64 113d 8c4e 84bc 1b86 aa3c 1b6e df3d
00000020: 33ce 88bd c8ff a8bc 3b0d 44bd 0f77 a73d
00000030: 469b 22bd 7836 743d 38df 653c 5be3 753c
00000040: 61c2 82bd dafe 35be 12a8 4abd a036 1fbe
00000050: 47d5 aa3d 1e96 9b3d 041b 023e 7555 503c
00000060: f22b d3bd 09a4 32bd d33a dfbc 632c c23c
00000070: a0da 163e b470 6bbd d4d2 84bc d822 2cbd
00000080: d0c1 1c3d f736 b63c 4968 df3b 7787 d9bd
00000090: 2428 cd3c f0ae cc3d 4fd3 0c3e 9420 f9bc
000000a0: b885 57be 1bdb 53bc 96be b3bd acdc 88be
000000b0: 3bb0 ea3d 1861 a1bd 0d12 72bd 66f2 433d
000000c0: 9469 273e bb4e 30bd 43a5 9a3c e5b1 8a3d
000000d0: ac80 aebd 9b9c e2bd 4dbf 7cbe 4531 af3c
000000e0: da15 b93d 7104 6e3b fcd8 143d d478 cf3d
000000f0: a8d1 bc3d 6d6f b53c 4ed5 8a3e a0bb a03d
00000100: 4696 17bd 4525 bc3d 1a66 bebc 52d9 37bb
00000110: c541 233c f498 963d b92d 753d e328 5d3d
00000120: 9a8e 8dbd 0a56 b63d 30d5 d43d 408d de3d
00000130: d6ff 7a3d d773 cc3d bd30 00bd 96a1 78be
00000140: 7197 5b3d 0889 acbc 8321 b9bd 1c98 cc3d
00000150: 36ff 6f3c 37a0 c7bd 09b1 553b 47da c0bc
00000160: 604e b0bc 110e ba3d 950f 963c cad4 25bc
00000170: 4cea 15be 5100 e33d c741 29be ed9c 873d
00000180: 3b91 a23d 95a2 1dbd 3ee0 a7bd 9a86 3ebd
00000190: 6c9e 433e 510c e73d 8517 033d 4108 4cbd
000001a0: a9ab cf3c 78c3 b63d ff50 0a3d 78cb d1bc
000001b0: 2990 c3bd 918a ea3d d957 4fbc f7fd 4a3d
000001c0: 4869 9b3c 58fc d43d 53fe de3d f4a6 a93d
000001d0: 0cb0 103e 0fd5 d8bd 61bc 9abd e4a2 613d
000001e0: 9e2f 25be f4a0 8a3b dd40 5a3e d3a4 a9bc
000001f0: cbda 9c3d ee37 83be b191 da3b 954b 913d
00000200: 02dc 6cbd 0dba 00bc 37e9 4cbc 8f4f 7f3e
00000210: 7d9d c03d 5610 fbbd 22ca ad3d ed17 953d
00000220: 1c59 19be fa88 ae3d 77ea 303e 3693 a1bd
00000230: 70d2 453d fa80 3d3c 68cd e9bd acb4 0a3c
00000240: ca39 8e3e 41f2 043d 0dfd 4f3d 09c4 e5be
00000250: 9dff 4cbd 953f 8dbe c5fc 2e3b 5d4f b83d
00000260: 9d10 023e 866f fa3d 91f3 ed3c 7aea 00bd
00000270: 044f 1d3e 4dd2 babe 8201 5a3e 904a 6b3c
00000280: 184b 0dbf 8848 2dbd f2fb c43d 4924 dbbd
00000290: 8b20 083d 0dbd 4cbe e84a 253c 14ff 043e
000002a0: dffa a8be a32e 9dbd d461 9ebe 7a2c a7bc
000002b0: 1ad9 183d 36a0 93be 76e7 8c3d 9a1a a23d
000002c0: 7322 223e 71ef 9dbe 55f0 f2bd 6d48 cebe
000002d0: 106c 8bbf b95c a0bd e4f0 abbd d011 443d
000002e0: a0c0 cabe 828a afbc 97ed 7e3d 4bbe 94bc
000002f0: 7818 f4be fab9 4bbd f2db 77bc d13e b9be
00000300: 0220 0ebe 32c7 463e 74a2 8dbe cdde 14be
00000310: 3123 e4be bf72 bb3d bc73 333e aeba 013d
00000320: cacd 693d 30bb f83c 9df2 75be 4136 2dbf
00000330: b83c 0e3e bbe3 f73d b49a c23d 5024 bcbe
00000340: b423 843d 849e 913d c245 55be 9fdd 26bd
00000350: 1168 7e3d c95f 64bd fe52 f13c f1d7 ce3d
00000360: 55b4 e8be a18a 35bd bb66 763e 79e8 963d
00000370: c26b 9dbc 8e19 5c3d db18 6e3d 77ba b83d
00000380: 7603 de3d a168 b63d 3f2e 2abe 4c04 8a3d
00000390: 75aa b8bd 4e34 09bf 7ff3 87bd 123f 76be
000003a0: 9602 453d 7633 ed3a 839c 9cbb 83e2 08bf
000003b0: 1548 21bd 91b7 c53d bc37 743e 73cd 1e3e
000003c0: fa34 d0bd 4945 263c 6138 04be a5a9 15be
000003d0: ed47 0f3e c20b 1e3e a217 c7bd 3379 223d
000003e0: 0c56 8cbd cbcc 9fbc 69cc ce3d ad82 6d3e
000003f0: fd00 953d 9ef8 7dbd 733c c13d 32d8 6b3d
0.09778055 -0.08867189 -0.05148075 0.013438454 0.035495978 -0.016150735 0.0208159 0.10909673
-0.066799544 -0.020629779 -0.04786418 0.081770055 -0.03969886 0.059622258 0.01403027 0.015007819
-0.06384731 -0.17773 -0.04947669 -0.15548182 0.08341461 0.07596992 0.12705618 0.012715687
-0.10311116 -0.043613467 -0.02724973 0.023702806 0.14731836 -0.05748053 -0.016213812 -0.042025417
0.03827077 0.022243006 0.0068178517 -0.10621541 0.025043555 0.09994304 0.13752483 -0.030411042
-0.21047103 -0.012930657 -0.08776586 -0.2673086 0.114593945 -0.07879847 -0.059099246 0.04783859
0.16348869 -0.043043833 0.018877631 0.06772212 -0.08520636 -0.110650264 -0.2468235 0.021385798
0.09037371 0.0036318565 0.036339745 0.10130468 0.09219676 0.022147859 0.27115864 0.07848287
-0.037008546 0.09186796 -0.023242045 -0.0028053117 0.009964411 0.07353392 0.059858058 0.05399407
-0.06911965 0.089031294 0.10392225 0.10866785 0.06127914 0.09983032 -0.03129648 -0.2428039
0.053611223 -0.021061435 -0.09039595 0.0998995 0.014648249 -0.097473554 0.0032606742 -0.023541583
-0.021521747 0.09084714 0.018317977 -0.010121534 -0.14640158 0.11084045 -0.16528998 0.06621728
0.07937857 -0.03848513 -0.08197068 -0.046515085 0.19103402 0.11281646 0.03200485 -0.04981256
0.025350409 0.089240015 0.03376865 -0.025609717 -0.09548981 0.11452211 -0.012655222 0.049558606
0.0189711 0.10399693 0.10888352 0.08283797 0.14129657 -0.10587513 -0.07555462 0.055086985
-0.16131446 0.004230613 0.21313806 -0.020708477 0.07658919 -0.25628608 0.0066702 0.07094494
-0.057827003 -0.007856858 -0.012506775 0.24932693 0.094050385 -0.12258975 0.084858194 0.07279954
-0.14975399 0.0852222 0.17276941 -0.078894064 0.048296392 0.011566395 -0.11416131 0.008465927
0.27778465 0.032457594 0.050778437 -0.44876125 -0.05004846 -0.27587572 0.0026700955 0.08999512
0.1270165 0.12228303 0.029046806 -0.031473614 0.15362173 -0.36488572 0.21289638 0.014361039
-0.5519271 -0.0423055 0.09618367 -0.1070028 0.03323416 -0.19993992 0.01008866 0.1298793
-0.330039 -0.07674911 -0.30934012 -0.02040695 0.03731642 -0.2883317 0.06880085 0.0791523
0.15833454 -0.30846742 -0.11862246 -0.4028963 -1.0892353 -0.078301854 -0.083955556 0.04786855
-0.39600086 -0.02142835 0.062238302 -0.018157145 -0.47674918 -0.049737908 -0.015128123 -0.36180738
-0.13879398 0.19411924 -0.27663004 -0.14538117 -0.445581 0.091527455 0.17524618 0.031672172
0.05708102 0.030362695 -0.24018331 -0.6766091 0.1389035 0.12103983 0.095021635 -0.36746454
0.06452122 0.071103126 -0.20827392 -0.040738698 0.062110964 -0.05575541 0.02945852 0.10099781
-0.45450082 -0.04432166 0.24062626 0.073685594 -0.019216422 0.05373531 0.058129173 0.0901994
0.10840504 0.08906675 -0.16619204 0.06739101 -0.09016887 -0.53595436 -0.0663824 -0.24047497
0.04809817 0.0018097002 -0.0047794 -0.5347063 -0.039375383 0.09654153 0.23849386 0.1550806
-0.101663545 0.010148355 -0.12912132 -0.14615496 0.13992281 0.15434173 -0.097213045 0.039666366
-0.0685235 -0.019506833 0.10097582 0.2319438 0.07275579 -0.062004678 0.09435358 0.057579227

fc2.bias f4 [64]
00000000: 6719 41bb 10e0 103d efc6 083d c29a ecbc
00000010: 7341 9d3d e7d3 e03d f059 93bd 9988 303e
00000020: 6cc7 99bd 8ace b6bd c6fd 3f3d 5e5d 11bd
00000030: 65dc efbc e642 8a3d 8f3c dfbc 175b acbd
00000040: 40be b7bd f6cc 963d 46f0 583d 965d 1e3d
00000050: 70f9 873a f804 2e3e ac5d c23d 422e 33bd
00000060: db3a 853d 382f 503d 5029 79bd 8e52 003e
00000070: bead e63d 4f11 ab3d 7ee4 953d 73d1 d43d
00000080: d8c1 593e ad99 9b3c 35ad 013e bb12 9f3d
00000090: a750 6d3d 676c 3c3e 4793 eb3d 9a3b 0d3d
000000a0: 0bc5 ee3d b9f2 d33b 51c8 c93c 36cc abbd
000000b0: d6ef 373d f6ff 813d df72 0f3e 83bc e63d
000000c0: ac4f b33c 434c aebd 7ece 9f3c 13a7 133d
000000d0: 051f bebd b73b 283e 6685 823e 29b2 923d
000000e0: d1fc 7c3c aa3b 6f3d cd81 953c 37ba 85bd
000000f0: 6abb 3a3b c724 abbd 792e 263e 3acf ae3d
-0.0029464604 0.035369933 0.033392843 -0.028882388 0.07678499 0.10977917 -0.071948886 0.17239608
-0.0750874 -0.08926113 0.046872877 -0.035489433 -0.029279897 0.06751041 -0.027250556 -0.084158115
-0.08971834 0.07363312 0.052963518 0.03866347 0.0010374021 0.16994083 0.09490523 -0.043745287
0.065053664 0.05082628 -0.060830414 0.12531492 0.112636074 0.08352911 0.07318972 0.10391512
0.21265352 0.018994177 0.1266373 0.077672444 0.057938244 0.18400727 0.115027 0.03448067
0.11658677 0.006468144 0.024631651 -0.083885595 0.04490646 0.06347649 0.14008664 0.112664245
0.021888576 -0.085106395 0.019507643 0.036048006 -0.0928326 0.1642903 0.254924 0.071628876
0.0154411355 0.05840651 0.01825037 -0.06529658 0.0028493055 -0.08356624 0.16228665 0.08535619

fc3.weight f4 [32, 64]
00000000: e88c 5dbd afb7 283e 8f29 9c3e b9ae debd
00000010: b1b1 22be e71b f9bd c16a 16bc 8b1c 26bc
00000020: 5c1e 923d 93c6 c13d bead 65bc 3cbf aebd
00000030: 2a7e 49be cfdd 11be d059 4a3d d214 43bd
00000040: 0d19 75bd b494 8b3c 35bb adbd eab7 9c3e
00000050: bfba 593d 467e bf3e a41b 86bd f2c1 423c
00000060: 0262 afbb 6c16 3e3d 3661 e33d 1f79 613e
00000070: 4b65 dabe 8d80 ca3c e93d 133e 3ca0 f53e
00000080: dc3c 263e f9be 9bbd e916 ee3d 705d 4e3c
00000090: d5a4 f5bd 7e03 873e d4de 013e fbe1 febd
000000a0: 3f40 71be 0245 2c3c d24a 343c fefc 56bd
000000b0: f659 e4bd 13f9 a83c 8d0e dc3d 353e 4d3d
000000c0: bd0f b03c 9301 b03d 6b9f 7d3c 7c98 8ebd
000000d0: c5c2 b43d f716 53be 140a ce3d 0194 4fbe
000000e0: ee40 303d 6cce 993d 8ce2 2a3e c856 f7bc
000000f0: 974e 983d e1b6 7fbc e050 6a3e 8b83 2e3e
00000100: 1c3c 353e 50aa 5ebe 34a2 7ebe 8020 38bc
00000110: 56a7 163e 049e 753d 567e a23d 62c5 f13d
00000120: bfda 223e d934 bdbd 0cc1 c5bc 0734 ed3d
00000130: 1c4a e93c 372f 8c3e 7238 e2bd 839c e83d
00000140: 97b3 83bc 6d4f 273d d434 53bd 7fb6 37be
00000150: cca8 acbc f5a9 c4be 46dd 56be 3123 9ebd
00000160: 7022 40bd bdaa 4abe bae1 a53d d454 7f3e
00000170: 4247 653e e540 1fbe 9959 20bd 4be4 653e
00000180: 45e6 373e 2a8a 653d 41b2 b73d 1704 26bd
00000190: 4e9b 1c3e a2e6 033c d03f 2e3e 3f54 33bd
000001a0: aea3 40bb 6f61 033e 926c 2b3d 1641 e43d
000001b0: 39d8 573d 4204 97bd cea7 ae3c 31fc 143e
000001c0: 5460 ce3d b4e3 ddbd 76ea dfbd a751 15bc
000001d0: 39e6 d33b b45c 863e 3e05 d23d 2ad1 0e3e
000001e0: 11b4 013e a924 debc d83c 40bd b05b 633c
000001f0: 9f8d 613e 2454 423e 16b1 1bbe df50 4e3e
00000200: a64f 14be b917 cbbe aa12 c0be a5d9 eabd
00000210: 7d2f ef3c 188e e33d a37d f63d 6480 e63d
00000220: da7d e23b 3af2 99bd 98f2 893d 42fd c23d
00000230: 103e 803d 3916 6d3d c6bf 25bd c3d0 d1bd
00000240: 0074 97bd 7b47 5b3d bdfb 29be 865b c9bb
00000250: 9e46 873d 0e05 b2be a2da 923d a9fd 1a3d
00000260: 472b 043e e720 65bd 4dee 083e a93e 523e
00000270: 98ca 713f 0f5a d63d f87c 1e3e b9ed 193d
00000280: c709 5f3e 6796 ef3d b972 0f3e 71d4 82bd
00000290: 07ff f63d cab8 26bd 1ce9 02bd 113d 35bd
000002a0: 1f9d ebbe 29a4 19be c5ba bdbd 336d 66bd
000002b0: 8d81 fa3d 3295 59bc 84f6 ef3b 3778 65bd
000002c0: 308f 563e 1f28 593d b146 c93d 277d 663e
000002d0: 2642 07bc 9b66 623d 5273 193e 6717 a7bc
000002e0: 8160 7c3e 210b 0bbe 04d1 dcbd 700a 7abd
000002f0: c87d 843b f96d 10bd 2c8d ccbc 0ee1 623e
00000300: 8139 31bd 40b5 eebd e18a 173e 39fd b6bd
00000310: f668 b3bd 130e d13c 4048 223d e9ed 623e
00000320: a057 363e 0162 83bd 0cfa a93d c384 593e
00000330: ba26 373d e8e1 ed3d 782a 53bd 98bd 643d
00000340: 74c1 b13d 02ce 363e e327 6fbe 05d4 173e
00000350: 28fe 32bd bea6 d2bc bd2d ec3c 0e05 003e
00000360: 472e 09be 8fd6 27be 3435 22bd 8060 1a3e
00000370: 7914 3c3d 7f27 0cbe 0dab a33d 4ccb b33e
00000380: a367 073e bdf4 f03d 4fdd 183c 0c80 803d
00000390: 769d 17bd 2099 28bc 8afd fabd 30b1 d53b
000003a0: 0e19 e13e 6328 953d fb67 ebb9 4d7f 023d
000003b0: c0d5 2fbc e5b4 ff3d 5ecd 753d 2e87 963d
000003c0: 7625 983d 99f5 713e 80e1 a7bd e028 a03d
000003d0: 59d0 493d c472 72be cfb9 8d3d 4612 6f3e
000003e0: 39ad 6e3e 4170 923d 9f32 243e 6006 7a3c
000003f0: eee2 4dbb 116e 3d3d 10df 61be 7086 123e
-0.054089457 0.1647632 0.30500457 -0.108731695 -0.15888096 -0.12163525 -0.009180726 -0.010138641
0.07134697 0.09461703 -0.014018474 -0.08532569 -0.19677034 -0.1424477 0.049402058 -0.047627278
-0.059838343 0.01703868 -0.084829725 0.30609065 0.05315661 0.37401026 -0.06548241 0.0118870605
-0.0053522596 0.046408102 0.11102526 0.2201886 -0.42655405 0.0247195 0.14379086 0.47973812
0.16234154 -0.076047845 0.116254635 0.012595519 -0.1199433 0.26369852 0.12682658 -0.12445446
-0.23559664 0.0105145 0.011004167 -0.052487366 -0.11149971 0.02062658 0.10744963 0.050108153
0.02149188 0.0859405 0.015479903 -0.06962678 0.08826212 -0.20614229 0.10060516 -0.20271303
0.04303067 0.07510075 0.16687983 -0.030192748 0.07436865 -0.015607567 0.22882414 0.17042367
0.17698711 -0.21744657 -0.24866563 -0.011238217 0.14712271 0.05996515 0.07934253 0.11805226
0.15903758 -0.092385955 -0.024139903 0.11582189 0.02847772 0.27379772 -0.11045922 0.11357977
-0.016076846 0.04084723 -0.051564053 -0.1794071 -0.021076582 -0.38410917 -0.20982847 -0.07721556
-0.046907842 -0.19791694 0.080996946 0.24934703 0.22390464 -0.15552099 -0.039147947 0.22450368
0.17958935 0.056039967 0.08969546 -0.040531244 0.15293619 0.008050593 0.1701653 -0.043781515
-0.0029394436 0.12830137 0.041851588 0.11145227 0.05269644 -0.07373859 0.02132025 0.14549328
0.10076967 -0.108344465 -0.10933392 -0.009113706 0.0064666537 0.26242602 0.10254906 0.13946977
0.12666346 -0.02711709 -0.046933025 0.0138768405 0.2202668 0.1897741 -0.15204272 0.20148037
-0.14483508 -0.39666536 -0.3751424 -0.11467294 0.029197449 0.111110866 0.12035682 0.11254957
0.0069119753 -0.07516904 0.06735724 0.09520961 0.062618375 0.05788252 -0.040466093 -0.10244896
-0.07395172 0.053534966 -0.16599937 -0.0061449436 0.06605266 -0.3476948 0.07170607 0.037839565
0.12907134 -0.05593958 0.13372155 0.20531715 0.9444976 0.10466396 0.1547736 0.037580226
0.21781074 0.11698609 0.14008607 -0.06388176 0.12060361 -0.040703572 -0.03196059 -0.04424769
-0.4601831 -0.15004028 -0.09264139 -0.056256484 0.12231741 -0.0132802 0.007323088 -0.05602285
0.20953059 0.053016778 0.098279364 0.2250868 -0.008255517 0.055273633 0.14985397 -0.020396901
0.24646188 -0.13578464 -0.10782054 -0.06104511 0.0040433146 -0.035261128 -0.02496966 0.22156164
-0.04326773 -0.116556644 0.14799072 -0.08935017 -0.08760254 0.025519406 0.039619684 0.22161068
0.17806864 -0.06415177 0.08299646 0.21242051 0.044714667 0.11615354 -0.051554173 0.055844873
0.086794764 0.17852023 -0.2335506 0.14826973 -0.043699414 -0.025714274 0.028830403 0.12501928
-0.1339656 -0.16390441 -0.03960152 0.15075874 0.04591796 -0.13686942 0.0799161 0.3511604
0.13223128 0.1176543 0.009330108 0.06274423 -0.0370154 -0.010290414 -0.1225539 0.0065213665
0.43964428 0.07283094 -0.00044900164 0.031859685 -0.010732114 0.12485675 0.060010307 0.07350002
0.0742902 0.23628844 -0.081973076 0.07820296 0.04927096 -0.23676592 0.06920206 0.23346815
0.23308267 0.07150317 0.16034935 0.015260309 -0.0031415778 0.046247546 -0.22057748 0.14309096

fc3.bias f4 [32]
00000000: 4fda 143e fc4a 7e3e 4248 c53c e30c 51be
00000010: a021 d53d 33ef 9f3d ad53 07bb 293a 293d
00000020: 6bca 183e e8d9 edbc 6beb ee3d 0cbf 93bb
00000030: f594 1e3e 71c7 1b3e 5ae0 b13d b935 1e3d
00000040: c580 89bc 46ed 223e bc7c 743d 3e51 debd
00000050: e1a0 483d 1198 afbd f269 883d fe99 b93b
00000060: 597b 84bd 602c 403e 32f5 66bd b487 053e
00000070: accf 2e3d fb89 183d 943d 243d a3ac 543e
0.14536403 0.24833292 0.024082307 -0.20415072 0.10406804 0.078092955 -0.002064924 0.04131523
0.14920966 -0.02903457 0.11665996 -0.0045088585 0.1548651 0.152128 0.0868537 0.038625453
-0.016785035 0.15910825 0.05968927 -0.108553395 0.04898155 -0.08573926 0.066608325 0.0056641093
-0.06468839 0.18766928 -0.05638618 0.13040048 0.04267852 0.037240963 0.040097788 0.2076898

fc4.weight f4 [16, 32]
00000000: ef8a 4a3e f613 153e 6655 c83b 8b05 85bd
00000010: 7c5d 5b3e d5e3 1fbe e99a acbd 9397 1abe
00000020: 4eac b33d 2de5 0f3d 7573 c93d 7bab 873e
00000030: 5e65 213e e8cc a63e d14c 7b3e fce0 1cbd
00000040: 55e7 9abe 6812 6f3e bd69 45be b778 46be
00000050: 0275 adbd 4b1a d33e 699b 023e cc75 903e
00000060: 0360 11bd 190b f93b 3408 26bf 35f8 9b3c
00000070: 17f8 33bc 93a7 ce3c 5b58 fdbd c7d5 3ebe
00000080: a00b 83bb 358e 5dbe 252a 283b eb52 36be
00000090: 3ac3 d6bd f632 da3d d1ba a23d 7923 623d
000000a0: 1af0 02be b62a a13d 7800 eabd 5102 803d
000000b0: a67b ac3b fe77 c53d 8e4e df3d c254 12be
000000c0: 0268 0ebe 9100 b0bd aed3 aa3d 9840 fcbc
000000d0: 285a 823d 66d4 a73d 8904 1e3c 29e5 b4bd
000000e0: aa6c 7f3d 06f7 cc3d e11d edbd afc6 4bbe
000000f0: fa93 b0bd fc7f 08be 8e86 d6bd bb6d 2ebe
00000100: 1ed0 503e 6ceb e1bc deb1 46be 7c81 0d3e
00000110: fa50 53bd 3b6d 70bd 37e7 dbbc 160e 183e
00000120: bc1a 383e 845f 75bc a7e0 5a3e 9aa2 283e
00000130: 06e6 8fbe b7f7 28be cefa 033e 2ebd 473e
00000140: b5f9 da3d d76a 56be 02df 3f3e bacb 9dbe
00000150: 0a6e 3e3e dc64 033f fa4b 133d ae18 593e
00000160: 42a9 e03d 6a00 6dbe 2cd0 923d 05b2 353e
00000170: 7fa9 bebd 3746 5f3e e901 a93d adf5 88be
00000180: 1851 453e b849 63bd d6d6 0bbf 0c53 9fbb
00000190: 2d8d 4c3d a144 9a3e dd8e 1dbc 369b a6be
000001a0: 426c 853e b2af 84bd 00b7 09be f4e6 88bd
000001b0: 6fb5 88be f65e b83d a936 d43d 76e9 dd3d
000001c0: 39ac be3e 40f5 20bd ddb9 a83c e97d 2bbe
000001d0: e127 07bd 0020 49be 6300 7ebe 69c0 3fbe
000001e0: 0c0e 003d 0a18 623d 94b7 153f 7e28 db3b
000001f0: 322b f43d 7914 4e3e b5dc 2b3e 5261 6b3e
00000200: 392a a6bd b7a4 b83d 182b 463e c14a 9e3e
00000210: 62d7 b63d 70b4 2d3e 8f2b 60bf 56bf 973e
00000220: ff32 29be 87aa 383d f8d2 dabc 6ff3 8a3c
00000230: 666e f4bc b89b 8e3e e724 413e cc94 58bc
00000240: f1e4 6cbe d451 9dbd c542 f4bd 9540 27be
00000250: 95d1 18bc 9d99 b83e d47a 283e 336b 953e
00000260: e596 97bd d1b7 20be eb2a d9be 63a9 473c
00000270: 3107 fe3d 2e42 903d 2fd4 483e d199 62be
00000280: f61f ed3d a7db 06bd b2c8 d73d 9a16 aa3c
00000290: 4026 7a3e 903d 483d ace4 9d3c 6d18 49bd
000002a0: 5be8 0f3e b3a0 093e 8bf4 b8bd 1ca1 383e
000002b0: 77e9 423e 8ddf 1e3d 261d 0abe 9430 a0bd
000002c0: 3d78 a0be f86b 783e 2c47 763e 7c26 04bf
000002d0: 5b8a 87bd b53b 9c3e 08d8 9f3d c247 fc3d
000002e0: 849c e1bd 661d 0eba cf49 dcbe 2b04 103e
000002f0: 0d5f 0bbe 19e5 dc3d b16d 18be b587 da3d
00000300: 4a56 04be 61ab 173d 3c04 b13c 8b0e 9fbd
00000310: f9d7 21be e6c0 10bc b814 4dbd 35ba d13d
00000320: 4263 51be f438 093e e3d5 28be 7dc1 e3bc
00000330: c4c4 16bd 7a05 42be dcb1 1f3d bc64 9d3d
00000340: 0978 093e f6bf 2dbe bfb8 14be f498 f9bd
00000350: d54c 473d 59ad 153e 239f dcbc 90f8 ccbd
00000360: 2d0d 033e 4336 11be 18fa 673c 960e 20be
00000370: ec8d c7bd 6a26 e7bc 56bf 663d 43ce 0dbe
00000380: 31aa 32be cd82 71bd 7600 81be 9e5a 32bd
00000390: efdd e3bc d5e5 f63d 0516 c1bd ba4b 5dbc
000003a0: a11d 253c 5717 383e 24e5 67be 010f 863e
000003b0: fb0e 983c 8ffd 91bd dbaa c1bd ee0d 4d3e
000003c0: 1e20 db3e 240c 103e 6a37 9dbc 9d80 503e
000003d0: 28ae 573e 4b64 1ebe 57e9 4dbe 5887 08be
000003e0: dd9b 203e 6172 79bd 86d5 493e 3280 003e
000003f0: 794b 8b3d ae53 de3d 75d8 903e 6c6a 7b3e
0.19779561 0.14558396 0.006113696 -0.06495198 0.2142238 -0.15614255 -0.08427984 -0.15096883
0.08773099 0.03513067 0.09836475 0.26498017 0.15761325 0.32578206 0.24541022 -0.0383005
-0.30254617 0.23346865 -0.19278617 -0.19381987 -0.08469583 0.41230997 0.12754597 0.28214872
-0.035491955 0.0076002 -0.64856267 0.019039253 -0.010984442 0.02522639 -0.12370368 -0.18636237
-0.0039991885 -0.21636279 0.0025659886 -0.17805068 -0.10486455 0.10654251 0.07945789 0.05520961
-0.12786904 0.078694746 -0.11425871 0.06250442 0.0052637635 0.09642027 0.10903655 -0.14290145
-0.13906863 -0.08593858 0.08341156 -0.03079252 0.06364852 0.08194809 0.009644636 -0.08832771
0.06235949 0.100080535 -0.115779646 -0.1990001 -0.08621974 -0.13330072 -0.10474883 -0.17034046
0.2039189 -0.027578078 -0.19403788 0.13818926 -0.051590897 -0.05869792 -0.02684365 0.14849123
0.17978948 -0.014976386 0.2137476 0.16468278 -0.2810518 -0.16500746 0.12888643 0.1950576
0.10692159 -0.20939194 0.18737414 -0.30819494 0.18596664 0.51325774 0.03596113 0.21200821
0.10969783 -0.23144689 0.07168612 0.1774369 -0.093096726 0.21804129 0.082523175 -0.26749936
0.19269216 -0.055490226 -0.5462469 -0.004862195 0.049939323 0.30130485 -0.009616581 -0.32540292
0.26059157 -0.06478824 -0.13448715 -0.06684676 -0.26700923 0.09002487 0.10361988 0.10835545
0.3724077 -0.03929639 0.020596439 -0.1674725 -0.032997016 -0.19641113 -0.24804835 -0.18725742
0.031263396 0.055198707 0.58483243 0.0066881767 0.11922301 0.20124997 0.16783412 0.22986344
-0.08113522 0.09015792 0.19352376 0.30916408 0.089278 0.16963363 -0.87566465 0.29638165
-0.1652336 0.045084503 -0.026711926 0.016961781 -0.029837798 0.2785318 0.18861733 -0.01321907
-0.23134209 -0.07681623 -0.11926798 -0.1633323 -0.009327312 0.36054698 0.16453105 0.2918335
-0.07401828 -0.1569512 -0.42415556 0.012186381 0.124037154 0.07043873 0.19612192 -0.22128989
0.11578362 -0.03292432 0.105363265 0.02076273 0.24428654 0.048886836 0.019274078 -0.04909556
0.1405348 0.13440208 -0.09031018 0.18030208 0.19034372 0.038787413 -0.13487682 -0.078217655
-0.31341735 0.24259937 0.24050587 -0.5162122 -0.06618186 0.30514303 0.078048766 0.12318374
-0.11016181 -0.0005421251 -0.4302506 0.1406409 -0.13610478 0.107858844 -0.14885594 0.10670415
-0.12923542 0.037028674 0.021608464 -0.07766446 -0.15805043 -0.008835053 -0.050068587 0.10240594
-0.2044802 0.13400632 -0.16487841 -0.027802223 -0.036808744 -0.18947402 0.03898798 0.07685229
0.13424696 -0.16967759 -0.145236 -0.121873766 0.048657257 0.14616908 -0.026931351 -0.10008347
0.12797995 -0.14180855 0.014158748 -0.15630564 -0.09743866 -0.02821656 0.056334816 -0.13848214
-0.17447735 -0.058962632 -0.25195664 -0.04354345 -0.027815787 0.12055556 -0.09428028 -0.013506824
0.010077865 0.17977653 -0.22646004 0.26183322 0.01856183 -0.071284406 -0.09456416 0.20024845
0.4279794 0.14067131 -0.019191463 0.20361562 0.21062529 -0.15467946 -0.20108543 -0.1333288
0.15684457 -0.060900096 0.19710359 0.12548903 0.06801505 0.108558044 0.28290144 0.24552315

fc4.bias f4 [16]
00000000: abea 793e 3d69 62bd b11c 75be 73fb 2cbe
00000010: 8d13 ba3c 78d5 363e 0b62 9bbd 84cf a73d
00000020: 4506 84bd 1d36 8d3e 7074 36be 7fb2 c83a
00000030: ba32 29bd df4c aa3a 8eb0 813d e21e 673c
0.24405925 -0.055276144 -0.23936726 -0.16892795 0.0227144 0.1785487 -0.075870596 0.08193877
-0.06446508 0.27580348 -0.17817855 0.0015311985 -0.041308142 0.001299288 0.06332503 0.014106484

fc5.weight f4 [3, 16]
00000000: c83b 2bbe 031e 2dbe a644 be3e 9039 ae3d
00000010: b642 6e3e 2253 82bd db1e 0cbe 0367 12be
00000020: 84d7 80bd cc6b 4abe 6d17 713e 8048 abbe
00000030: 8beb cabe 5479 733e 29ca c23e ba54 7dbd
00000040: da79 a4be cc7f ab3c c432 b33d c758 d63e
00000050: 4fc9 bebe e437 92be 7efe 30be b980 d03e
00000060: e60e 3b3e e96c dc3e 18e0 a7bd 1965 da3d
00000070: c1dd 213f 1e2d 203e 6ad3 d0be 2b67 41be
00000080: d21a e6bd d73b 83bd f839 31be 9dc3 12bd
00000090: ddb6 e7bb f8b7 953e 70ee 08be 09fb 2f3e
000000a0: 30ec 78be d3ed 0dbd b0f3 1abe 5eec fc3d
000000b0: 81ff bbbd f34d 4b3e ce17 e4bc c565 abbe
-0.16722023 -0.1690598 0.3716175 0.08507073 0.23267636 -0.063635126 -0.13683645 -0.14297108
-0.06291106 -0.19767684 0.23544092 -0.3345375 -0.3963283 0.23776752 0.3804486 -0.06184838
-0.32124215 0.020934962 0.08749917 0.41864607 -0.3726296 -0.28558266 -0.17284581 0.40723208
0.18267402 0.43051842 -0.08197039 0.10663814 0.63228995 0.15642211 -0.40786296 -0.18887012
-0.11235584 -0.06407898 -0.1730727 -0.035831083 -0.0070713595 0.2924192 -0.13372207 0.17185606
-0.24308848 -0.034650635 -0.15132022 0.12349771 -0.09179593 0.19853954 -0.027843382 -0.33476081

fc5.bias f4 [3]
00000000: c266 3fbe 3695 2b3e 41fe b6bd
-0.18691543 0.16756138 -0.08935214
