models/NN-Scalability-four-fluorophore-trained-model.pth (torch, 60812 bytes, 10 tensors)

fc1.weight f4 [128, 24]
000000 6c af 84 bc a3 4a 12 3d 18 40 6c be a3 99 d1 3e
       -0.016196929 0.03571571 -0.23071325 0.40937528
000010 e0 aa e6 3e 64 d9 bc 3d c7 86 f5 bc 8f 7f 7b be
       0.45052242 0.092211515 -0.029971493 -0.24560378
000020 40 31 d7 3b 8c 99 9a bc 0c 60 90 3d 0f 59 48 bd
       0.0065671504 -0.018872045 0.070495695 -0.048913058
000030 63 1d 50 3d c4 80 2e 3e 3f 46 9b bd 13 47 87 bd
       0.050809275 0.17041308 -0.07581758 -0.06605353
000040 da aa 4e be 73 8d fe bd 54 2d 31 be 5f cf 76 3c
       -0.20182362 -0.12429323 -0.17302448 0.01506409
000050 ba ba 49 be 58 4c c1 3d 43 02 bc bc be 2a 17 3e
       -0.19700137 0.094383895 -0.022950297 0.14762399
000060 1b f2 89 3c 9b b7 11 be 37 2d 08 3e 36 86 85 be
       0.016839078 -0.14230196 0.13298498 -0.26078957
000070 b5 95 82 be 30 f5 56 3e ee 15 16 3e 5b bd e3 3d
       -0.25504842 0.20991969 0.14656803 0.11120101
000080 f2 cb d4 3d ed 37 90 3d 6b e6 38 3e 2e 6e 0d 3e
       0.10390462 0.07041917 0.18056647 0.13811561
000090 55 17 59 be a2 ce 36 bc 32 f6 38 3e 58 a0 4c 3e
       -0.21200307 -0.011157664 0.18062666 0.19983041
0000a0 ef b9 70 bd 52 c1 02 be 5b 21 bf bc 52 ac 2b 3e
       -0.05877107 -0.12769058 -0.023331335 0.16764954
0000b0 83 1f bf be ab cc a2 be 00 63 7d 3e e4 16 b7 bd
       -0.3732873 -0.31796774 0.24744797 -0.08939913
0000c0 23 81 1c 3c d3 75 08 3c 9f eb 4f be f8 4e c3 be
       0.009552273 0.008328873 -0.20304726 -0.38146186
0000d0 13 d6 a6 be bf f8 ae bd 81 19 00 3e 2a bd a9 be
       -0.325852 -0.08543538 0.12509729 -0.33152133
0000e0 c9 79 05 bd d7 d7 e9 bc 8f c6 8a be bf dd 32 3e
       -0.032586847 -0.028545303 -0.27104613 0.17467402
0000f0 43 6d 62 be 36 82 0a 3f 0c c7 f8 3e 74 da f5 3d
       -0.22111993 0.54104936 0.4858936 0.12004557
000100 d0 10 9a 3e cf 35 3a 3e 86 84 8e 3e bb de ac 3e
       0.30090952 0.18184589 0.27835482 0.3376368
000110 74 3c 95 3d bc 80 c1 3d 4e 20 cc 3d 2b 13 4e be
       0.07286921 0.09448382 0.09967099 -0.201245
000120 1e e6 20 be 5b 0e 7b 3e 64 fb db 3c f7 69 e7 3d
       -0.15712783 0.24517195 0.02685327 0.11299508
000130 0d c6 8b 3e b9 a3 c2 bd ee a0 1b 3c 57 19 28 be
       0.27299538 -0.09503884 0.009498818 -0.16415916
000140 cb ea 80 be 92 f7 d0 be bd 22 be 3e 4a b9 d8 3c
       -0.25179133 -0.4081388 0.37135878 0.02645554
000150 2b a3 87 be 2d df 98 bd 61 05 2d b9 23 7a 84 bc
       -0.26491675 -0.074644424 -0.0001650057 -0.01617152
000160 32 b1 c2 3c fc 84 98 be 46 da 82 bd b8 d7 aa 3c
       0.023766134 -0.2978896 -0.063892886 0.020854816
000170 97 6e 4b be 0b 80 ca 3e 12 d6 a0 3e 86 8f af 3e
       -0.19866405 0.39550814 0.31413323 0.34289187
000180 28 ee a9 be 5b 4c df bd 97 ef ff bd 95 05 c4 3d
       -0.3318951 -0.109032355 -0.1249687 0.09571377
000190 92 c6 c2 3d 08 9f 40 be 35 59 a8 bd aa f7 2e 3e
       0.095105305 -0.18810666 -0.0822014 0.17086664
0001a0 4b 5f e9 bc 03 97 56 3e af 4c 5a 3e 06 d2 54 3e
       -0.028487822 0.20956044 0.21318315 0.20783243
0001b0 e9 3c 7c 3d 42 86 5a 3e 26 d4 26 3e d6 1c 35 3e
       0.061581526 0.21340278 0.16291866 0.17686781
0001c0 f2 99 09 bc 83 f2 99 be 34 61 d9 3d 16 db 5e 3e
       -0.00839852 -0.30067834 0.10614243 0.21763262
0001d0 ce ab 31 3e c5 6d ae 3e e1 72 98 bd 67 ff b4 be
       0.17350695 0.34068123 -0.074437864 -0.35351107
0001e0 68 25 0f 3e ed fa 77 3e 3e 75 78 3e 01 c9 df 3e
       0.13979113 0.24216814 0.24263474 0.4370804
0001f0 bc 5e eb 3e 6a 37 b1 3d 16 55 2b 3e d3 c2 36 3e
       0.45970714 0.086531475 0.16731676 0.17847757
000200 8d 36 07 be 96 d3 84 be e9 60 89 3b 1a ff 1a be
       -0.13204403 -0.25942677 0.004192461 -0.15136376
000210 d5 c9 4c be 79 28 f7 3d 92 57 3a be e9 49 95 be
       -0.19998868 0.120682664 -0.18197468 -0.2915795
000220 9c d9 0b 3d d4 62 1c 3c 24 d2 ac 38 10 b7 73 be
       0.034143075 0.009545047 8.240741e-05 -0.23800302
000230 ca 2c 10 bd 32 6b 09 3e fc b6 9f 3c 9c ab 2a 3e
       -0.035198964 0.13419798 0.019496433 0.16667026
000240 55 63 0b 3e 30 2e 8b be 00 9f a0 3d 21 93 45 3e
       0.13612111 -0.27183676 0.07842827 0.19294406
000250 2b fc 8e be 8b 2e bf be 47 76 17 3e 7a 80 0a be
       -0.27926764 -0.37340197 0.14791213 -0.13525572
000260 c4 e7 19 be 71 6a 1b bd 92 de 06 3e 4d d8 00 be
       -0.15029818 -0.037943307 0.13170841 -0.12582512
000270 ed 6a 95 3e c3 c7 f1 3d 5f a2 de 3e 75 2f 75 3e
       0.2918314 0.1180568 0.43483254 0.23943885
000280 5c 66 0a 3e 0f b8 b2 3d 43 da 0d be 8e f4 6c bd
       0.1351561 0.08726513 -0.13852791 -0.057850413
000290 bf fe 04 3d 1c d6 40 be a4 57 3d be 9b 32 8d 3e
       0.032469507 -0.18831676 -0.18490463 0.2757767
0002a0 24 41 39 3e 0f 92 4c be a0 67 26 3e 05 7f 1a be
       0.18091255 -0.19977592 0.16250467 -0.15087517
0002b0 ca 8c 08 3e ca 59 32 be d5 4a 49 be a3 bc 73 be
       0.13334957 -0.17417064 -0.19657452 -0.23802428
0002c0 6c 03 0f be dc b8 f2 3d 60 f3 78 bd 8d 95 99 be
       -0.13966149 0.118516654 -0.060778975 -0.2999691
0002d0 41 7e c2 3e dd 27 cf 3d 51 96 1c 3e 96 b8 5e bd
       0.3798695 0.10115025 0.15291716 -0.054375254
0002e0 c1 d5 25 be 2c 29 80 3e 2e 8c 6d 3e 09 1b a0 bd
       -0.16194822 0.25031412 0.23198006 -0.078176565
0002f0 49 64 d7 3e e3 29 2c be 33 30 ec 3d d9 65 a2 be
       0.420687 -0.16812854 0.11532631 -0.3171833
000300 af 78 80 be 68 d0 d9 3d 9c b8 94 be b7 22 cb 3d
       -0.25092074 0.106354535 -0.29047096 0.09918731
000310 56 9c 8c be d6 82 bd be a0 a2 92 be 38 33 08 be
       -0.27463025 -0.37013882 -0.28639698 -0.13300788
000320 54 68 9e 3e 78 7e f9 3d 71 4e 11 be 78 4d 64 3e
       0.3093897 0.12182325 -0.1419008 0.22295177
000330 0a d5 10 3e 6b 2a 9d be a5 77 fa bd db 40 87 3d
       0.14143768 -0.30696425 -0.12229852 0.06604167
000340 85 b6 86 3e 8e b9 8c 3d ed 79 06 3e 3e 7b 7a 3d
       0.26311126 0.06871329 0.13132448 0.06115269
000350 78 8a 32 3e 59 6a cf bc 3c 8a 81 3e 2e 7e 94 be
       0.17435634 -0.025319265 0.25300777 -0.29002517
000360 21 9f c2 bd fe d7 10 3e f0 98 28 be 4b a7 17 3f
       -0.09503008 0.14144894 -0.16464591 0.59239644
000370 d8 78 8a 3e 57 77 02 be f6 bc 2e be b7 17 c4 bd
       0.2704532 -0.12740837 -0.1706427 -0.09574836
000380 50 4e 7d be d1 0b 86 3d 59 27 19 be 72 90 e6 3d
       -0.24736905 0.065452226 -0.14956416 0.112580195
000390 b5 39 22 be 40 e0 e5 bb dd eb 61 be cf 57 f6 3d
       -0.15842326 -0.007015258 -0.22062631 0.12028467
0003a0 d9 c9 6c be da 9e cb 3d 9f 8a 38 be b7 a4 6d 3d
       -0.23123874 0.09942408 -0.1802163 0.058018412
0003b0 f8 4b 10 3e 5c 9e 35 be 7a 4b 9b 3d 0c 81 a9 3e
       0.1409148 -0.1773619 0.075827554 0.33106267
0003c0 14 43 e4 3c 43 66 9b bd b0 94 dd 3e 94 33 39 be
       0.027864017 -0.07587864 0.43277502 -0.18086082
0003d0 79 eb 8a bd 3f 7f 01 bd 0f b2 02 be b6 c2 6d 3d
       -0.06783194 -0.031615492 -0.12763236 0.05804702
0003e0 2c 80 00 3e cc d5 14 3c a4 15 37 3d 48 1d 01 3f
       0.12548894 0.009084176 0.044698372 0.50435305
0003f0 30 f4 17 3b 2c 93 de bd f8 b2 5a be 1d d3 b8 3c
       0.0023186319 -0.108679146 -0.21357334 0.022561604

fc1.bias f4 [128]
000000 23 a6 48 3e 54 61 3c 3e 8d 18 14 be ac 46 95 3d
       0.19594626 0.18396503 -0.1446249 0.0728887
000010 50 e5 05 3c f2 82 34 be 0d 66 a5 3e 6a d9 23 bd
       0.008172348 -0.17628077 0.3230442 -0.040002264
000020 c8 de 3b be d2 59 56 3e a9 74 f4 bd 29 8f f6 bd
       -0.18346703 0.20932701 -0.11936314 -0.120390244
000030 b2 4e 86 3d 42 09 b9 3d d8 34 0a bf 94 03 1e be
       0.06557979 0.09034969 -0.53986883 -0.15431052
000040 e6 57 91 be 16 84 ea bd 1f 2c 66 3e 64 bf ac be
       -0.28387374 -0.11450975 0.22477768 -0.3373977
000050 66 1b a2 3d ea fd 76 be 6b 3d 57 3e 76 19 ca bd
       0.07915382 -0.24120298 0.21019523 -0.098681375
000060 99 34 00 3d d8 74 49 be af 72 3b 3e cc 9f 56 be
       0.03130016 -0.19673479 0.18305467 -0.20959395
000070 8f 89 28 3e 74 c1 03 3e 39 9c 75 be ce 52 1d be
       0.16458724 0.12866765 -0.23985375 -0.15363619
000080 3d 5e 21 3d 66 89 4b 3e c6 7b df 3d 97 5f 86 3e
       0.039396513 0.19876632 0.1091228 0.26244804
000090 2f ea 35 be 81 6a f8 bd 77 c5 42 3e 6f de 84 be
       -0.17765115 -0.12129689 0.1902064 -0.25950953
0000a0 86 b7 d0 3c f8 55 02 3e 54 80 96 3e ec 2c 80 3e
       0.025478136 0.12728107 0.29394782 0.25034273
0000b0 cb 5b 8e 3e 29 1f 70 3d 3a 50 e4 bd e4 9d 46 be
       0.27804407 0.058623467 -0.111481145 -0.19396168
0000c0 8f e9 45 3c 3a 01 a8 3e 43 1f cd bd 43 01 f9 be
       0.0120796105 0.32813436 -0.10015728 -0.48633775
0000d0 aa 65 e3 ba f7 5e 39 bd 32 e2 c9 bd 81 20 14 bc
       -0.0017349024 -0.04525658 -0.098575965 -0.009040953
0000e0 1d ac f2 3e 66 ab 48 3e be e1 66 be 56 86 2c be
       0.47396937 0.19596633 -0.22547051 -0.1684812
0000f0 ed 1d 8b 3d c6 02 5a 3e 9d 82 7e bd 93 f4 db be
       0.06792817 0.2129012 -0.06213628 -0.42960033
000100 53 7b 35 be 4e 85 94 be 3e 71 7d be 40 02 fd bc
       -0.17722826 -0.29007953 -0.2475023 -0.030884862
000110 e4 01 e9 bd 76 b1 d9 3b b2 1e 22 bd 66 68 43 3e
       -0.11377314 0.0066434694 -0.039580055 0.19082794
000120 4f 9c 5d 3e f6 9f 36 bd 52 3f 2b be fe 03 17 bd
       0.21641658 -0.044586144 -0.16723374 -0.03686904
000130 08 c7 15 bd 0a da b9 3d 2e a5 34 bb 60 6f 9c 3d
       -0.036566764 0.09074791 -0.0027564275 0.076384306
000140 55 b8 a4 be 73 1c 11 3c d6 c2 45 3e 1c 12 b3 be
       -0.32171884 0.0088568805 0.19312605 -0.34974754
000150 2a a5 a5 bd d4 1a e0 3c 06 0e cb 3d 1e 72 54 be
       -0.08088143 0.027356543 0.09914784 -0.20746657
000160 44 a5 74 be 1a c1 02 bd dd 0f 76 3e 0a 9e 3c be
       -0.23891169 -0.031922437 0.24029489 -0.18419662
000170 b7 99 cd be 1e cc 48 3e 50 bf 95 bd e7 2f ad bd
       -0.40156338 0.19609115 -0.073118806 -0.08456402
000180 c8 ae fd be d2 5d 7c 3d 8c 3c 61 3d ea 9b 32 3e
       -0.4954741 0.06161291 0.054989383 0.17442289
000190 6a 60 c0 3c 8c 92 b4 be 5a a1 07 bd 87 10 25 be
       0.023483474 -0.35268056 -0.03311286 -0.16119586
0001a0 62 5b 07 3d 82 64 37 bd 3c 58 b1 be 75 52 72 3e
       0.033046134 -0.044773586 -0.3463763 0.23664267
0001b0 2a c8 d5 3d 84 79 76 3e ba f8 4e 3e 1a d3 08 bc
       0.10438569 0.24069792 0.20212069 -0.008351112
0001c0 62 94 66 be 04 3c e6 be af 54 92 3e e2 7e 6d 3d
       -0.22517541 -0.44967663 0.28580233 0.057982333
0001d0 de 8d c9 bd c6 74 b8 be a1 17 6c 3d 19 c5 c3 be
       -0.09841512 -0.3602659 0.05763972 -0.3823631
0001e0 0b 38 1e 3e 7a 37 35 3d 66 1b b5 be 91 90 18 3e
       0.15451066 0.04424236 -0.35372466 0.14898898
0001f0 6b 16 f5 bd cc 9b 94 3c ce f8 2d bd 67 de 09 3d
       -0.119671665 0.018140696 -0.042473607 0.033659365

fc2.weight f4 [64, 128]
000000 1a d2 b4 bc 2e ca 0a 3d e8 42 2d bd 6e 22 2f bd
       -0.02207284 0.03388422 -0.042300135 -0.042757444
000010 b5 97 18 3f 12 01 07 bd 18 dd eb be 4b f3 6a be
       0.59606487 -0.032960005 -0.4606712 -0.22944371
000020 86 15 16 3e d2 44 99 be bb aa 6a 3a 44 26 8f be
       0.14656648 -0.29935318 0.00089518324 -0.27958882
000030 ce 96 bf 3e cc a9 08 3e 35 73 dc be bf 4f 77 be
       0.37419742 0.13346022 -0.43056646 -0.24151514
000040 4d 86 37 3e 3a 74 a4 be 3e aa a7 3e 30 2b 8f bd
       0.17922325 -0.32119924 0.32747072 -0.06990659
000050 d7 1f ba 3e 66 47 01 be b2 7e b0 3d 0d 10 a2 be
       0.36352417 -0.12624893 0.08617915 -0.3165287
000060 fc d8 3b bd cc d6 e0 bd 46 c7 00 be d2 28 c2 bc
       -0.04586123 -0.10978469 -0.12576017 -0.023701105
000070 22 07 39 bd 54 d8 ee bd 38 7e a5 3d e3 f8 0d bf
       -0.045172818 -0.11662355 0.08080715 -0.55457896
000080 1a 3b 1f 3e 8b 80 1f 3e 37 6d aa 3e 88 2d 8e 3e
       0.15549889 0.15576379 0.3328645 0.27769113
000090 ef 60 c8 be ee 4a b3 3e e4 71 06 3e c6 4e 15 3e
       -0.39136454 0.35018104 0.13129383 0.14580831
0000a0 5f 6f 36 bd f7 6a 9c 3c f5 73 86 3e 82 8c 91 be
       -0.044539806 0.019093974 0.26260343 -0.2842751
0000b0 40 a9 a6 3e 36 a1 10 3e 2e 0e c1 bb 04 69 bd 3d
       0.32551003 0.14123997 -0.005891583 0.09248546
0000c0 0a fe b8 bc 03 57 e0 3d b2 6b 6d 3d c8 87 aa bc
       -0.022582073 0.10954096 0.057964034 -0.020816699
0000d0 71 0a 43 3e d7 3b 8f be df a0 31 bc fb ba fe 3e
       0.19046952 -0.27975342 -0.010841577 0.4975203
0000e0 df d5 92 3e 1b 5c 10 be 7d ce 67 3e af 6b ba bd
       0.28678796 -0.14097635 0.22637363 -0.0910257
0000f0 09 c6 33 be d2 05 e2 3e 8e cf 2e 3d ca b8 a5 bd
       -0.17556013 0.44145066 0.04267841 -0.08091886
000100 a5 2d db 3e 53 40 fb be 39 37 33 3e 2d 3e ed 3d
       0.42808262 -0.49072513 0.17501535 0.11584125
000110 5a 3a ab be e2 e8 d5 bd 30 e2 44 be dc 10 18 3e
       -0.33442956 -0.104448095 -0.19226909 0.14850181
000120 58 d0 15 3c db c4 45 be 37 3c c9 be 3f 91 5d 3e
       0.009143911 -0.19313376 -0.39303753 0.21637438
000130 68 aa 83 3d 09 40 9b bd 2d b4 dd bc 31 66 a0 3e
       0.06428987 -0.07580573 -0.027063454 0.31327966
000140 2a 1a db bd 35 2f ff be 64 7d 08 3e d6 a4 0f bd
       -0.1069835 -0.49840704 0.13329083 -0.03506931
000150 90 ef 8a be c6 54 09 3c c9 96 90 be 16 3e a0 3d
       -0.27135897 0.008382028 -0.2824004 0.07824342
000160 6e aa 9c bc 3c ce c0 3d 31 25 61 be 24 92 d1 bc
       -0.019124236 0.09414336 -0.21986844 -0.02558238
000170 ac 63 cf be 45 3a 95 3c 45 dc aa be 5b 93 5e be
       -0.4050573 0.018216262 -0.33371177 -0.21735899
000180 9c eb d1 be ae 04 1e 3d 8e d5 44 3e fe 53 f4 3d
       -0.41000068 0.03857868 0.1922209 0.11930083
000190 ff 8d 9f be 14 b2 53 3e 6c 08 ce 3d a0 da 46 be
       -0.31163022 0.206734 0.100602 -0.19419336
0001a0 d9 24 5f be 4a 91 6d be 86 5a 6b 3b bb 1d 81 3d
       -0.217914 -0.23199955 0.003591211 0.06304499
0001b0 de e7 15 3e 2c 31 0d be 88 00 00 3d 11 47 1c 3e
       0.14639232 -0.13788289 0.031250507 0.15261485
0001c0 c7 a9 b5 be a2 a9 16 be 8e 31 ff 3e b7 d6 51 3d
       -0.35481092 -0.14713147 0.49842495 0.05123016
0001d0 d5 e0 5f 3d 0e 38 a5 3d 69 ae 2d be 13 b4 d7 3d
       0.054657776 0.08067332 -0.16961063 0.10532393
0001e0 af 14 70 3d ff 10 d9 bd 5e 29 d7 3c 70 e1 f2 bd
       0.058613475 -0.10598945 0.026264843 -0.11859405
0001f0 13 70 b4 bd 29 63 9a 3e e4 cc ef bd dc 58 d6 3e
       -0.08810439 0.30153778 -0.11709002 0.4186467
000200 87 41 22 3e a3 1d 16 3c d9 ac 81 3e f7 25 59 3d
       0.15845309 0.009162339 0.25327185 0.05301472
000210 a7 5c 15 bd 3c a4 b0 bd 06 5a bd 3e b4 4a b7 3b
       -0.036465313 -0.08625075 0.36982745 0.005593622
000220 fa e3 4e 3e b5 e3 06 3e e0 40 de bd 7a 98 b8 3c
       0.20204154 0.13172801 -0.10852218 0.022533644
000230 a2 4c 77 3c 18 29 22 3e 04 6c 1d 3d 0a 99 30 bd
       0.015093954 0.15835989 0.03843309 -0.0431147
000240 1c c4 02 3e c3 76 b8 bd 7a 83 6e 3d 0c 9d 18 be
       0.12770122 -0.09007027 0.058230855 -0.14903659
000250 38 6b da 3d b0 7f e0 bd 3b 62 ae be 45 45 ef bd
       0.106649816 -0.109618545 -0.3405932 -0.11683134
000260 a6 7d 96 3c d2 e9 85 bc e7 ec dc bd a7 84 b6 bd
       0.01837046 -0.016346846 -0.10787373 -0.0891202
000270 75 eb 91 be e9 d3 7f 3e 98 98 eb 3d ce fa 75 3e
       -0.28499952 0.24983181 0.11503714 0.24021456
000280 d1 af 76 be d4 af 65 be f5 7b 13 bd 61 f4 90 bd
       -0.24090506 -0.22430354 -0.036006887 -0.070778616
000290 5d 68 32 3e 34 61 f9 bd 64 24 32 3c 75 ed 40 be
       0.17422624 -0.12176743 0.010872934 -0.18840583
0002a0 81 70 c7 3c 06 c4 d4 bd 0d 11 11 be 80 d7 fe bc
       0.024345638 -0.10388951 -0.1416666 -0.031108618
0002b0 d6 ab 92 3e 23 d0 e3 3d db 73 ee 3b b4 00 53 3d
       0.28646725 0.11123683 0.0072769946 0.051514342
0002c0 94 48 e1 3d 55 0d 52 bd c4 9b 61 bd 73 7e 99 bd
       0.11000171 -0.051282246 -0.05508019 -0.074948214
0002d0 d6 95 17 3d 70 c5 5e bd 81 49 80 3e 17 8c c7 bc
       0.03700813 -0.05438751 0.2505608 -0.024358792
0002e0 8d 38 c9 3e d5 c5 6f 3c 53 62 4e be cf a0 12 3b
       0.39300957 0.014634569 -0.20154695 0.0022373681
0002f0 87 5e 82 3d 7b 59 99 3e f2 11 5f be f8 6c 6c bd
       0.06365686 0.2995108 -0.2178419 -0.05772111
000300 1d e2 37 3c 35 e4 4c bd 2d 87 d4 bd 42 a5 45 3e
       0.011223343 -0.050022323 -0.10377345 0.19301322
000310 8c 8b 0e 3f 7c 9c 23 3d e3 cb 1a 3e 1c 92 5a 3e
       0.5568168 0.039944157 0.15116839 0.21344799
000320 45 a4 32 3e 37 45 76 3e 6e 70 22 3e 1c 65 06 3e
       0.17445476 0.24049841 0.15863201 0.13124508
000330 56 21 c1 bd 3a 76 24 3e 3b 46 41 3e 48 3d dd 3e
       -0.094301865 0.16060725 0.18874447 0.43210816
000340 55 bd 20 be a8 83 39 be 63 ae 8f bd 12 a0 1e be
       -0.15697224 -0.18116629 -0.070156835 -0.1549075
000350 1a db 05 bd ca f2 1b bd a5 8c 03 3d c4 45 b3 bd
       -0.032679655 -0.03807334 0.03211655 -0.08753541
000360 a6 99 95 be 11 83 40 bb f0 be 80 3d da 97 7a 3d
       -0.29218787 -0.0029374997 0.062864184 0.061179973
000370 b2 5b a9 bd ee 9e ca bc 3a 99 7f be 99 1c b1 be
       -0.082694426 -0.024733987 -0.24960795 -0.3459213
000380 fb 82 8e be 1c 2a b5 bd c6 33 1f 3e 70 51 70 3d
       -0.27834305 -0.08845922 0.15547094 0.058671415
000390 e4 df 60 3d f0 1f 82 be 57 f0 c3 3c 05 f7 f9 bd
       0.05490102 -0.2541499 0.023918314 -0.12205318
0003a0 bf 4b 9d be 11 c3 62 3e a2 b1 26 3e bb 57 8a 3d
       -0.30721852 0.22144724 0.16278699 0.067550145
0003b0 de fc ce 3e bd 24 1f be b4 9a 48 bd 6b 9f 3f be
       0.40427297 -0.15541358 -0.04897566 -0.18713157
0003c0 ee d6 11 3d 90 df 22 be 2c a4 8f 3e 35 dc 1d 3d
       0.035605364 -0.15905595 0.2805494 0.038540084
0003d0 1e 2e 9d 3d 5e 01 82 be 51 54 6e bc e6 da db bd
       0.07674812 -0.25391668 -0.01454647 -0.10735111
0003e0 26 d6 bf bc 2a c0 e1 bd 7b 1f 05 3e 02 22 8c be
       -0.023417544 -0.110229805 0.1300029 -0.27369696
0003f0 75 b3 85 bd dd dc 67 bc 3b ea 47 3e b4 65 d8 bd
       -0.06528369 -0.014151779 0.19522946 -0.10566273

fc2.bias f4 [64]
000000 0a 55 5d 3e ae b8 b5 3d 70 01 07 bc 57 64 a4 3d
       0.21614471 0.088731155 -0.008240089 0.08026951
000010 43 64 d3 3c 98 c8 5d 3e 7e 20 b2 3d 41 28 8d bd
       0.025804644 0.21658552 0.08697604 -0.068924434
000020 4f 5c b5 3c 33 2d 14 3e c0 80 fa bb 84 35 49 bd
       0.022138743 0.14470367 -0.0076447427 -0.049123302
000030 0c 7d 37 3e cb 6e 09 3e 19 1f 33 3e 99 df 0d 3b
       0.17918795 0.1342117 0.17492332 0.0021648167
000040 91 10 24 3e 63 47 a1 b9 f1 1f 22 3e 71 4d 7a 3e
       0.16021945 -0.000307615 0.15832497 0.24443604
000050 70 80 c8 bd d7 0b 3a 3e 23 b3 81 3e 15 ec 07 bd
       -0.097901225 0.18168579 0.25331983 -0.03318413
000060 35 bb 30 3e 80 78 8f 3e 27 07 1d 3d b2 93 97 bd
       0.17258914 0.28021622 0.0383369 -0.074012175
000070 c9 73 f2 bd 22 b8 2d 3e bc b9 82 3d 7e 4e f7 3c
       -0.118384905 0.16964772 0.06383082 0.030188795
000080 12 26 1a bd 0a a0 5c 3c 27 ca 91 3d ec eb 46 3e
       -0.037633963 0.013465891 0.071186356 0.19425935
000090 d3 93 93 3d 36 5d 2a 3e fd 7d 03 3e 34 ea 88 3e
       0.072059296 0.1663712 0.1284103 0.26741183
0000a0 bd 13 9d bd 69 6d c8 bd b8 3e b8 bd 84 45 e8 3d
       -0.076697804 -0.09786493 -0.08996338 0.11341384
0000b0 94 ff 8a 3e 5f 9a 62 3e 14 8c 55 3e be 6b a3 3d
       0.27148116 0.221292 0.20854217 0.079795346
0000c0 0f 76 28 3e a4 47 c0 bd 9d 56 cc 3d ee 17 81 3e
       0.16451286 -0.09388664 0.09977458 0.2521357
0000d0 bf b9 47 3d 10 2c 80 3e d9 d3 b0 3d 38 64 87 3e
       0.048761126 0.25033617 0.08634157 0.26443648
0000e0 ec 9d 4d 3e e8 3e ac bd 98 36 4a 3e 72 9e 6a 3d
       0.20079774 -0.08410436 0.19747388 0.05728001
0000f0 d4 f5 74 3d 9b 02 42 3b 92 2e 7e 3d f0 18 dc 3d
       0.059804752 0.0029603604 0.06205613 0.10746944

fc3.weight f4 [32, 64]
000000 23 14 69 3e 6c 3e b9 3c 52 a1 4a bb fb 6b b5 3e
       0.22761588 0.022612773 -0.0030918908 0.35433945
000010 2a 81 f2 bd 06 0c 01 be 47 cb 07 3d c7 f6 54 3e
       -0.11841042 -0.12602243 0.033152845 0.20797263
000020 d5 2c fb bc f4 10 7c be d0 4b 4b bc bb e6 17 be
       -0.030661026 -0.24615842 -0.012408212 -0.1483411
000030 36 66 79 be f8 c4 0d be b0 79 af bc 34 42 e3 be
       -0.24355397 -0.13844669 -0.02142033 -0.44386446
000040 62 52 bb bd f4 ea 66 3e 11 8a d7 bc d5 ac b6 bd
       -0.09146573 0.22550565 -0.026310952 -0.08919684
000050 18 24 64 bd 07 67 74 3d ea 7e 07 be 7e da 8d bd
       -0.055698484 0.059668567 -0.13232008 -0.0692644
000060 72 1c 9d bd 64 30 68 bd d3 41 06 bd 0a 87 50 3c
       -0.07671441 -0.056686774 -0.03277762 0.012727508
000070 e2 82 28 3e 7e 4b 00 3e 5e 21 96 3d a4 4b 1d 3c
       0.16456178 0.12528798 0.07330583 0.009600554
000080 37 b2 b3 3d 87 79 ba 3c 86 43 e6 3e 39 66 8e 3d
       0.08774226 0.022763027 0.4497339 0.06953091
000090 5d 77 cf 3e dc 08 d9 3a a8 6c a9 3c b0 f0 95 3c
       0.40520754 0.0016558426 0.020681694 0.018303245
0000a0 48 fa 2f 3e 8d 9e aa bd 85 32 98 bd 0f 6e ee bd
       0.17185318 -0.083310224 -0.07431511 -0.11642086
0000b0 e2 70 09 3d e1 a4 bc 3e aa c2 bc be d2 27 03 3e
       0.03355492 0.36844543 -0.36867267 0.12808159
0000c0 56 18 c1 3c 58 3e a3 3d 84 8a b1 3e aa c4 0b 3e
       0.023571175 0.079708755 0.34675992 0.1364924
0000d0 3d bb 85 3c d0 4d 69 bd 1c 1a 10 3e c6 b2 48 bd
       0.016324634 -0.056958973 0.1407246 -0.048998617
0000e0 71 33 80 3e e8 1e 8f bd 2d d8 a7 3e 5e 79 7f 3e
       0.25039247 -0.06988317 0.32782117 0.24948642
0000f0 38 40 61 3e 82 c4 85 3c 2d 21 01 bd 23 1c 09 3e
       0.21997154 0.016329054 -0.03152578 0.1338964
000100 57 dd e2 3e 27 c4 67 3e b6 fa 58 bd 58 a3 72 be
       0.44309494 0.2263342 -0.05297347 -0.23695123
000110 e6 76 24 ba f9 48 75 bd ae c2 39 3e cc 0d 42 bd
       -0.0006273821 -0.059884045 0.1814067 -0.04737644
000120 fb 01 ac be 24 53 16 bd 00 af 7b ba 90 08 e7 3e
       -0.3359526 -0.036700383 -0.0009600967 0.4512372
000130 05 32 f5 bc fb 54 43 3e 61 b2 e7 bd ab 5e e9 bc
       -0.029931078 0.19075386 -0.1131332 -0.028487524
000140 cb 25 5a be b0 83 a4 3d 10 80 62 be ce 3f fb 3e
       -0.2130348 0.0803293 -0.22119164 0.49072117
000150 91 83 36 3e ca ec 65 3d c3 41 0a be b6 d5 3d be
       0.17823626 0.056134023 -0.13501649 -0.18538556
000160 c4 c0 ed 3c d7 96 97 3c bf b5 ac 3e 0f 57 79 bd
       0.029022582 0.018504543 0.3373241 -0.06087404
000170 3b 37 63 3d cc 2d 45 be c9 5c 58 be af 9e 80 3a
       0.055472594 -0.19255751 -0.21129145 0.0009812916
000180 8d 3e de 3b eb 58 a5 bd b8 d3 31 3e 11 e0 27 3d
       0.006782359 -0.080736004 0.1736592 0.04098517
000190 17 98 ca bd 36 48 fa bc 77 6a 02 bd 83 19 cf 3d
       -0.0989229 -0.030552011 -0.031839814 0.10112288
0001a0 f7 6d fb bd af 39 32 3e ec ec 11 bf 50 94 6c be
       -0.122768335 0.17404817 -0.5700214 -0.23103452
0001b0 68 39 9a 3d d3 d0 57 3d 80 99 b7 3e 49 ff fa bd
       0.075304806 0.052689385 0.358593 -0.12255723
0001c0 ae 80 db 3e 6c 6d 47 3d 82 46 d4 3d b8 fa 3a 3e
       0.42871612 0.048688337 0.10365011 0.18259704
0001d0 51 00 96 3e 2a 94 13 bd 17 d1 2e 3e 7b 1b ca 3d
       0.29297116 -0.036029972 0.17071949 0.09868523
0001e0 a1 2a da 3d 05 a8 93 be 45 a7 70 3e 44 af 11 3e
       0.10652662 -0.28839126 0.23501308 0.14227015
0001f0 2c 91 18 bd a2 a5 8f 3d b0 06 45 be dc 90 b7 be
       -0.03724782 0.07014014 -0.19240832 -0.35852706
000200 2c f6 68 3e 7b 9a fb 3d f1 ba 5c 3c 6f a6 60 3e
       0.22750157 0.12285324 0.013472305 0.2193849
000210 b6 3c 22 3e 19 38 1a be 8b 4c 47 3c 4e 66 c9 3d
       0.15843472 -0.15060462 0.012164245 0.09833966
000220 71 1c 22 3d f1 0b 2f bd 54 fc 36 3d 82 c9 74 3e
       0.039577905 -0.042735998 0.044674233 0.23904994
000230 3f 46 64 be 3d 89 24 3e 05 eb 9a 3d fd 04 fb be
       -0.22292422 0.16067977 0.07564358 -0.49027243
000240 9b d7 5d bd 7a 6b d9 3e bb 3b 0a bd 02 19 08 bf
       -0.054160696 0.4246481 -0.03374837 -0.5316316
000250 b6 d0 d6 3c 05 01 61 be d8 e6 5b be e9 1a cb bd
       0.026222568 -0.21973045 -0.21474779 -0.09917242
000260 a6 05 42 3e 7b 50 5a 3b e6 6c b6 3e 20 cd 9a bd
       0.18947467 0.003331213 0.35629958 -0.07558656
000270 4d 51 78 3e 5a d9 41 3e b0 83 84 bd 45 59 8b 3e
       0.24249764 0.1893057 -0.0647043 0.27216545
000280 79 f0 08 3e 8b 68 81 bc ad b2 a9 3d ec 04 5d 3d
       0.13372983 -0.01579692 0.08286033 0.053959772
000290 3e 8f 7f bc dd a2 1f 3e 91 08 33 bd ff 0c 63 3e
       -0.015598116 0.15589471 -0.04370934 0.22172926
0002a0 3e eb 08 3e 13 9d 23 bc 9a dd 7b 3e e4 fb e7 3d
       0.13370988 -0.00998618 0.24596253 0.11327341
0002b0 2f 43 e9 bd ba ef a6 3c 19 05 ce be 8a cb 21 3e
       -0.113897674 0.020377982 -0.40238264 0.158003
0002c0 3f 11 0d bd 03 5a f9 bd 08 1f de 3d d1 bc 8f 3e
       -0.034440275 -0.121753715 0.108457625 0.28073743
0002d0 43 9b 21 3b 43 9c 2c be 1d 07 52 3e 0f 5d e6 3d
       0.0024659194 -0.16856484 0.20510526 0.11248218
0002e0 19 b1 82 be 94 51 81 3d 0c dc 88 3e f4 9c fc 3d
       -0.2552574 0.06314388 0.26730382 0.12334624
0002f0 1f 27 6d 3e a5 1b bc bd b4 49 53 3d 2f a1 e6 bd
       0.23159455 -0.0918496 0.05158396 -0.11261212
000300 78 48 10 be 66 2b 9d 3d af f3 f8 bd 03 db 43 3e
       -0.14090145 0.07674293 -0.12155854 0.19126515
000310 c0 17 b0 be 19 ae 14 bd 64 20 19 be 29 69 f8 bc
       -0.3439312 -0.036298845 -0.14953762 -0.030323582
000320 a1 6a 4e 3e d9 9a 37 3e de df fe 3d 4d 29 95 3e
       0.20157863 0.17930163 0.12445043 0.29133072
000330 ec 71 8a 3e e8 9d 2a 3e 3f b5 84 3c 6a 83 d0 3d
       0.2704004 0.16661799 0.016199706 0.10181315
000340 6e c0 a9 ba b0 ff c5 bd a2 bb 9b 3d 4b 36 5e bf
       -0.0012951025 -0.09667909 0.076041475 -0.86801594
000350 38 e5 84 bb 5a 64 ef bd 98 1f 82 3d b6 6c ae bd
       -0.0040556453 -0.116890624 0.06353682 -0.08516829
000360 0e 1c e6 3d a6 21 51 3d 62 2f e3 3d dc 3d 44 3d
       0.1123582 0.05105748 0.11093022 0.047910556
000370 01 11 5e be a0 af 89 3d 8a 22 6d 3e 90 79 17 3d
       -0.21686174 0.06722951 0.23157707 0.036981165
000380 09 5e 28 bc 1e 75 8c bd 1b 4b ec be eb 50 98 3d
       -0.010276326 -0.06858276 -0.4615105 0.07437309
000390 84 75 9c be e2 a5 48 3e ba 70 46 be 24 19 6f bb
       -0.30558407 0.1959453 -0.1937894 -0.003648349
0003a0 8e 5a da 3e 33 a6 9f 3d 7c 72 3b 3e 64 09 e7 3d
       0.42647213 0.07795372 0.18305391 0.11281088
0003b0 f6 93 2c be 59 91 3f 3d 8d dc cd 3e 7f 0c 0f 3d
       -0.16853318 0.046769474 0.4020733 0.034924027
0003c0 28 44 8d be fd 66 fd bc 40 14 f4 3d 2e 43 58 3c
       -0.27591062 -0.030932898 0.11917925 0.013199611
0003d0 e0 73 2c 3e 7f 67 ba 3e 15 f9 60 3e 0d 73 df 3d
       0.16841078 0.36407086 0.21970017 0.10910616
0003e0 93 45 00 be 24 61 1f 3d f8 7e bb 3e 90 61 a2 3e
       -0.1252654 0.038911 0.36620307 0.3171506
0003f0 33 86 51 be 42 eb bd bc 1e 89 97 3c aa 89 6d 3e
       -0.20461349 -0.023183469 0.018498 0.23197046

fc3.bias f4 [32]
000000 8f ed f3 3d 49 7a 98 3e ff 4b 86 3d f9 a1 aa 3d
       0.11910545 0.29780796 0.06557464 0.08331675
000010 63 43 eb 3d e1 49 30 3e 4b e7 80 3d 47 45 c8 bd
       0.11487462 0.17215683 0.06294116 -0.097788386
000020 ba d2 d2 3e ab 22 86 bd 68 5b e5 3d 5e a6 e5 bc
       0.41176397 -0.06549581 0.11199075 -0.028033432
000030 dd c1 13 bd 3f 97 68 3b 07 39 b5 bd 2a 34 ea 3c
       -0.036073554 0.003549054 -0.08848768 0.028589327
000040 23 c2 ef 3d 10 2f 00 3b dc 7e 96 3e 6b f7 ab bd
       0.117069505 0.0019559301 0.2939366 -0.083968006
000050 23 a5 70 3e 07 05 5b 3d 83 0f d6 bd 85 79 13 3e
       0.23500495 0.05347159 -0.104521774 0.14401825
000060 4c a5 a1 3e 8b bd 2c be 29 72 f1 bc dc 67 36 bd
       0.31571424 -0.1686918 -0.029473381 -0.04453264
000070 1d dc 9f 3e 87 ca 22 3d 2b f8 5c 3d 4f 38 6d 3e
       0.3122262 0.039743926 0.05394761 0.23166011

fc4.weight f4 [16, 32]
000000 5d fa 3d be b1 0c 0a 3e 95 ba 65 3c a0 4a 25 be
       -0.18552537 0.13481404 0.014021535 -0.16141748
000010 fd 7d 9e 3d af 89 85 3d 21 76 47 bb f6 04 68 3c
       0.07738874 0.06520402 -0.00304354 0.014161339
000020 dd 66 30 be 95 b2 05 be 2b ee 58 3c 68 af 2e 3d
       -0.17226739 -0.13056405 0.013240377 0.04264775
000030 b5 45 9e 3d b2 e9 01 3c 54 95 13 be 28 c9 49 3c
       0.07728139 0.007929252 -0.14412433 0.012316026
000040 41 e9 93 bd 93 7a 7b 3d d9 cc 55 be ea bc c1 3d
       -0.07222224 0.061396193 -0.20878924 0.094598606
000050 ab 96 40 bd 45 f5 b0 bd 4e 4c bb bd 0f bc 5d be
       -0.04701869 -0.086405315 -0.09145413 -0.2165377
000060 18 13 0e 3d 04 e9 c4 3d a5 4f 1b be 57 f9 7c 3d
       0.034686178 0.09614757 -0.151671 0.061761227
000070 44 41 a2 3d 6f 9e 9b 3d 83 69 90 bd 2e 53 fb 3d
       0.07922605 0.07598578 -0.07051375 0.12271725
000080 ea ca 41 be a1 8a f5 3d 67 2c 18 bd 27 55 0a 3d
       -0.18925062 0.11989332 -0.03715172 0.033772614
000090 67 49 db bc 87 19 a1 bd d1 ee 40 3e d3 6e 1c 3e
       -0.0267684 -0.07866197 0.18841101 0.15276651
0000a0 95 84 a4 3c 1b f7 52 3e 62 b5 5e 3e 87 ad 9c bd
       0.020082751 0.20602076 0.2174888 -0.07650285
0000b0 82 ca f1 3c e0 f7 82 3e e7 9a bd be bb 7f ff 3b
       0.029515509 0.2557974 -0.37032244 0.007797209
0000c0 85 18 e1 ba 2b 79 32 3e ca df 61 3e 3a d0 fd 3d
       -0.0017173445 0.17429034 0.22058025 0.12393232
0000d0 58 f6 cd be 5b 6e d9 3e 2c bc be be f5 c0 e2 3e
       -0.40227008 0.42467007 -0.3725294 0.4428784
0000e0 ff ce 84 3d db 50 11 c0 97 d3 fa 3d c8 57 4f be
       0.06484794 -2.27056 0.12247389 -0.2024833
0000f0 0a 92 4d 3e d9 e7 a1 be f1 31 56 3e e2 9d b4 3d
       0.2007524 -0.31622198 0.20917489 0.08819176
000100 e1 3a a2 bd 65 57 1f 3e 14 a9 d8 bb 79 77 89 3e
       -0.079213865 0.15560682 -0.0066119526 0.26848963
000110 0e fe 36 3d f2 2e 6a 3e 31 6e dc bd 90 41 a8 bd
       0.04467588 0.2286947 -0.10763205 -0.0821563
000120 02 13 c5 3e e9 c8 2b 3d b6 87 c8 3d 15 bd 93 bd
       0.38491064 0.04193965 0.0979151 -0.07213799
000130 b7 f7 91 3e 80 2b b0 3e 1a 21 6a 3e e5 d1 5b bd
       0.28509304 0.34408188 0.2286419 -0.053666968
000140 60 80 b2 bd 58 dd 97 3e 34 53 ef bd 08 45 b6 3d
       -0.08715892 0.2966106 -0.116857916 0.088998854
000150 68 c5 f5 be f2 79 b1 3e 4e 13 3a 3d 58 65 37 bc
       -0.48002172 0.3466335 0.045428567 -0.011193596
000160 43 38 a3 3e c2 66 ca bc 45 39 b2 3d 1c a5 c7 3c
       0.31878862 -0.024707202 0.087023295 0.024370722
000170 3f e8 30 bc 8a ce d6 be 26 55 06 bd 0b 09 b7 be
       -0.010797559 -0.41954452 -0.032796048 -0.35749087
000180 78 99 25 be 92 b1 3b 3e 6c 41 53 3c 3a c9 70 bb
       -0.16171825 0.18329456 0.012894016 -0.0036741034
000190 17 78 b7 3e a6 1a 8e 3e 7d 58 04 3e 23 22 df bd
       0.3583381 0.27754706 0.1292438 -0.10895183
0001a0 29 3d d2 bd db b3 16 3e 5a 9b 20 be 84 dc 4b be
       -0.102655716 0.14717047 -0.15684262 -0.19908339
0001b0 b0 4f a8 bd a1 7f 36 be 25 d3 58 3e 2e 1f 9b bd
       -0.08218324 -0.17822124 0.21174295 -0.075743064
0001c0 c8 3e 53 be fa ca 38 be de c2 73 3e df 08 6c 3b
       -0.20629418 -0.1804618 0.23804805 0.003601603
0001d0 dc 4e 9b 3e 45 c1 20 3d 78 f0 3b 3e d4 b1 25 3e
       0.30333602 0.039246816 0.1835345 0.16181117
0001e0 f6 ed 65 3e 8a e4 5d be 4f d8 5a 3e 1b 80 09 be
       0.22454056 -0.21669212 0.21371578 -0.13427775
0001f0 50 fb 96 bd 95 8a bf 3d 3f 49 7c bd 3d e9 bb 3e
       -0.07372153 0.09352604 -0.06159329 0.36701384
000200 52 11 90 3e d9 6e 98 3e 23 99 9f 3e e5 fb 31 3e
       0.28138214 0.2977207 0.31171522 0.17381246
000210 38 5a 81 3e 67 0e b8 be d5 b0 ee 3d cd 57 11 be
       0.25264144 -0.35948488 0.11654822 -0.1419365
000220 a1 da 88 3e 00 3c 34 be 4a b7 73 3e 0a 91 43 bd
       0.267293 -0.17601013 0.23800388 -0.047745742
000230 0a 9e d8 3d 09 ba a1 be 9f 7c ce 3c a2 57 94 bd
       0.105770186 -0.31587246 0.025205908 -0.07243277
000240 8e 9b a3 3c 05 bd 34 bd b7 0c 33 be 22 46 b4 be
       0.019971635 -0.044125576 -0.17485319 -0.35209757
000250 ec cf d3 3e 14 cc 02 bf d2 33 db 3d f4 02 fe 3d
       0.4136957 -0.5109265 0.10703243 0.12402907
000260 be 5b a4 3d ab ad 1a 3f d6 d3 a6 bd 04 11 1e 3e
       0.08025311 0.60421246 -0.08145873 0.15436178
000270 23 5c df bd af bc f6 3d fd f8 a8 3e 11 09 7b 3e
       -0.109062456 0.12047707 0.33002463 0.24515177
000280 fa 13 96 bd 2e 13 a2 3d 6a 60 0a 3e d6 ab 99 3e
       -0.07328029 0.079138145 0.13513342 0.30013913
000290 a7 a6 28 3e 7d 76 a6 be 29 31 5e 3d 3d 38 4c bd
       0.16469823 -0.32512274 0.0542461 -0.04985832
0002a0 0d 00 99 be 7f c5 51 be 2d 11 69 bd ed 1c 4b bd
       -0.2988285 -0.20485495 -0.056901146 -0.049588133
0002b0 3e c3 21 3a 99 76 be be 13 a3 2e 3e 1c 6a a8 3d
       0.0006170756 -0.37199858 0.17054395 0.08223364
0002c0 a2 cd 87 3e dc 31 6d 3d 2d fb 72 3e 88 8b 8b bd
       0.26524073 0.057908878 0.23728628 -0.06813723
0002d0 a1 68 e3 3e 86 44 f9 be 53 fb aa 3d 63 7a 5a bd
       0.44415763 -0.48685092 0.083487175 -0.053339373
0002e0 b0 8a 47 be bd 85 a7 3e b6 0c 7f 3e 97 46 58 3c
       -0.19486499 0.32719222 0.24907193 0.013200424
0002f0 6f c8 2a 3e 36 52 34 3e bc 47 69 3d 18 9b 03 3f
       0.16678022 0.17609486 0.056953177 0.5140853
000300 43 8d 6b 3e 1e e6 a3 be ea 08 da 3d f0 bd 92 3d
       0.23003106 -0.32011503 0.106462315 0.07165134
000310 ea ef 3a 3e 0f 8c 92 3e 07 f8 bb 3e 8d 6c 92 ba
       0.18255582 0.2862248 0.36712667 -0.0011171267
000320 82 74 65 be 44 43 8d bd c8 9f 77 3e 4b 8b 7c 3d
       -0.22407725 -0.068975955 0.24182045 0.061656278
000330 1c bc 23 3e cd 00 a6 be e8 10 f3 bd 16 b5 90 bd
       0.15989727 -0.32422486 -0.11868459 -0.070657894
000340 df bf c3 3d 46 d1 b2 bc 44 fd 20 3d 60 8e 71 3e
       0.09558081 -0.021828305 0.039304033 0.23589468
000350 4d f8 2f 3e 21 6c a8 3d 9f de 18 be 0d 7e 9e 3d
       0.17184563 0.08223749 -0.14928673 0.07738886
000360 c5 05 9f 3e 11 7e f2 be 1e 08 37 be 0d b9 c4 3e
       0.3105909 -0.47361806 -0.1787419 0.38422433
000370 b1 07 26 3e 89 ad 3f bd 0d d6 3d 3e 9d 03 ab 3e
       0.16213872 -0.046796355 0.18538685 0.33401194
000380 57 5b ce bd cb 18 17 be 37 7f b0 bd 53 f8 74 be
       -0.100760154 -0.14755552 -0.08618014 -0.23922853
000390 c4 72 f3 bd b3 7d d2 3c 52 1a 53 be 3e 44 29 be
       -0.11887124 0.025694704 -0.20615509 -0.16529939
0003a0 11 9a 87 bd 1a da 5a bd d9 18 67 3d 86 6f d1 3d
       -0.06621183 -0.053430654 0.05642018 0.102263495
0003b0 2e 90 53 be 95 d8 95 bb 8e ed 4b 3d 88 89 a8 ba
       -0.20660469 -0.0045729377 0.049787097 -0.001285837
0003c0 5b 06 bb bd 04 24 54 be 1a f4 9a 3b ea 90 56 bd
       -0.091320716 -0.20716864 0.004728806 -0.052384295
0003d0 5a c6 df bd 08 c9 e2 3c c1 15 61 bb 73 15 da bd
       -0.109265044 0.02768375 -0.0034345242 -0.10648622
0003e0 01 14 01 3e d9 a2 d9 bd 26 db 06 3d 98 e0 dd bc
       0.12605287 -0.10626764 0.03292384 -0.027084634
0003f0 d6 fa 83 3d c7 86 c5 bc ee 25 f8 bd d1 71 82 3c
       0.064443275 -0.024112118 -0.121166095 0.015923413

fc4.bias f4 [16]
000000 48 db d4 bd c6 2c 81 3d 7e 68 e5 3d 3c db e9 bc
       -0.10393387 0.06307368 0.11201571 -0.028546922
000010 c6 c6 36 3d 08 c3 97 3e 14 16 95 3e 83 1b e4 bd
       0.04462316 0.29640985 0.29118407 -0.1113806
000020 21 bd 58 bd a0 a9 94 3e 01 a7 47 3e d6 91 b7 bd
       -0.052914742 0.29035664 0.194973 -0.08963363
000030 58 23 06 be ff 08 25 3e ed d2 f8 3d 94 84 96 39
       -0.1309942 0.16116713 0.12149606 0.00028709008

fc5.weight f4 [4, 16]
000000 ef ff 0b bd 35 75 98 3d 8d 6c cc be ca 44 73 3e
       -0.034179624 0.074442305 -0.39926568 0.2375671
000010 a7 22 f7 bd 1e d8 8a 3e eb f2 9d 3e de 69 68 3d
       -0.12067156 0.2711801 0.30849394 0.056741588
000020 9a e9 6e 3e c3 cd 15 3f a2 d6 f5 3e 2e 2e 17 be
       0.233313 0.5851709 0.48015314 -0.1476371
000030 2d fe 37 3f 9b 7f 7c be ed ea 57 3d 04 53 7f be
       0.71872216 -0.24658053 0.052714277 -0.24934012
000040 e7 06 59 3e ac e8 09 3f 04 55 56 3e d8 b5 8a 3d
       0.2119404 0.53870654 0.20930868 0.06772965
000050 55 02 c0 be f6 7f c8 be fb c4 9f 3d e2 f0 40 3d
       -0.3750178 -0.39160126 0.07801243 0.047104724
000060 00 1b 0f 3e a7 dc 0c 3e 57 0d c9 3e a9 e6 3f bf
       0.13975143 0.13756047 0.3926799 -0.74961334
000070 49 51 8f be 20 94 55 bd eb f9 5a bb 65 e2 04 3f
       -0.27991703 -0.052143216 -0.0033413123 0.5190795
000080 3a 9f da bd 66 bd c5 bc 5a 11 1c 3d 30 b8 04 3e
       -0.10674901 -0.024138164 0.038102485 0.12960887
000090 51 d2 da bd 76 d2 22 3e f2 14 f0 be 45 8d b0 bb
       -0.10684646 0.15900597 -0.4689098 -0.0053879344
0000a0 67 d0 26 be 90 6c 28 3b 3e d0 8c 3d 1b e4 91 bc
       -0.16290437 0.0025699474 0.068756565 -0.017808964
0000b0 15 1d 64 bc 88 de 28 bc 6c 93 da 3e a8 4c 6e 3d
       -0.013922949 -0.010306962 0.426906 0.058178574
0000c0 ba f5 8b bd d3 e6 28 3b 0e 55 bb be a4 1d 2d be
       -0.06833978 0.0025772348 -0.3658833 -0.16905838
0000d0 8c 06 5a be 16 39 17 3e de 9b 50 3e 81 c9 18 3c
       -0.2129156 0.1476787 0.20371959 0.009325386
0000e0 83 56 29 3e 0b d1 12 bc 78 46 0a 3e d2 75 97 bd
       0.16536908 -0.008960973 0.13503444 -0.07395519
0000f0 94 02 d4 3d aa 3f a5 3e 5c d6 20 3e f1 eb a4 3c
       0.10352054 0.32275134 0.15706772 0.020132037

fc5.bias f4 [4]
000000 9a c1 d1 bd 95 9a 9f 3d 05 66 74 3e a8 be 32 3e
       -0.10242005 0.07793156 0.23867042 0.17455542
