models/NN-trained-model.pth (torch, 20268 bytes, 8 tensors)

fc1.weight f4 [64, 24]
0	0xbc8beb58	-0.017079994
1	0xbdd37cc8	-0.103265345
2	0x3e90d597	0.28287956
3	0xbe87597a	-0.26435453
4	0xbe9aaa1f	-0.30207917
5	0x3dcb69bd	0.09932277
6	0xbd3895b4	-0.045064643
7	0x3cdca2f9	0.02693318
8	0x3d309836	0.04311391
9	0xbe0de90d	-0.13858433
10	0xbe859113	-0.26087245
11	0xbda4a83c	-0.08039901
12	0xbbffdd54	-0.007808367
13	0xbcd6810d	-0.026184583
14	0x3e915bda	0.2839039
15	0x3dd98f59	0.106230445
16	0x3ded9169	0.116000004
17	0xbe21f2c6	-0.15815267
18	0x3e3990e9	0.18121685
19	0xbe634e6a	-0.22197881
20	0x3ddb6ffa	0.10714717
21	0x3da22ab1	0.07918299
22	0x3e179142	0.14801505
23	0xbdb06f64	-0.08614996
24	0x3e62c9ac	0.22147244
25	0x3d27ae1a	0.04093752
26	0x3e4c8932	0.19974211
27	0xbe10e441	-0.14149572
28	0xbd958af7	-0.07301896
29	0xbe1cfc68	-0.1533066
30	0x3c7161f7	0.014732829
31	0x3e058fd3	0.13043146
32	0xbe22ff1b	-0.15917628
33	0x3e1b29ac	0.15152615
34	0x3e812199	0.25220945
35	0xbdc0198f	-0.09379875
36	0x3dfcc445	0.12342123
37	0xbd53ecfa	-0.05173967
38	0xbe315d0c	-0.17320651
39	0x3e05a1e2	0.13050035
40	0xbd4e7dba	-0.05041287
41	0x3d141533	0.03615303
42	0xbe3ed365	-0.18635328
43	0xbdefcea0	-0.117093325
44	0x3dfcba4c	0.12340221
45	0xbe140472	-0.14454821
46	0xbe37ce7f	-0.17949866
47	0x3e9b1507	0.3028948
48	0x3db6e953	0.08931222
49	0xbe140537	-0.14455114
50	0xbc1b47f7	-0.009477607
51	0xbd56dc72	-0.052456327
52	0xbe7f7e93	-0.24950628
53	0x3db07f52	0.086180344
54	0x3e14f216	0.14545473
55	0x3e5c3d41	0.21507742
56	0xbde27398	-0.11057204
57	0xbd135e4d	-0.035978604
58	0xbc05bd85	-0.008162861
59	0xbdce5546	-0.10074858
60	0x3dfa4715	0.12220589
61	0x3aba973f	0.0014235749
62	0x3d8e5421	0.0694964
63	0x3dfd008d	0.12353621
64	0x3b1fc7b2	0.0024380502
65	0x3db8d277	0.09024518
66	0x3e44358d	0.19161053
67	0xbd2a0d98	-0.04151687
68	0x3e04a9a1	0.12955333
69	0x3df73e52	0.120724335
70	0xbd18771a	-0.03722296
71	0x3eb19365	0.34682766
72	0x3d065bd8	0.032802433
73	0x3d169732	0.036765285
74	0x3e09320d	0.13397999
75	0x3e2d23ff	0.16908263
76	0xbe5cb8db	-0.21554892
77	0xbe596a13	-0.2123187
78	0x3e0769ba	0.13223925
79	0xbe0c7d76	-0.13719735
80	0x3e244b38	0.16044319
81	0x3dce239d	0.100653864
82	0x3e1f5a97	0.15561901
83	0xbd99ac4e	-0.07503568
84	0x3e17a08e	0.1480734
85	0xbdc37053	-0.095429085
86	0xbd0712a7	-0.032976773
87	0x3e3c4887	0.18387042
88	0xbe536526	-0.20644054
89	0x3e425d52	0.18980911
90	0xbd22babc	-0.039728865
91	0x3da5b9d5	0.08092085
92	0x3dfa15be	0.12211178
93	0xbe3d1c25	-0.18467768
94	0xbcf4173a	-0.029796232
95	0x3dcad828	0.0990451
96	0x3e0f20d9	0.13977374
97	0x3dacf530	0.08445203
98	0x3d425494	0.04744394
99	0x3e190a43	0.14945321
100	0x3d9bdb56	0.076101944
101	0x3e0efcfe	0.13963696
102	0xbcacd779	-0.02109884
103	0xbe03b3ea	-0.128616
104	0xbe038da5	-0.12847002
105	0xbe693d5e	-0.22777316
106	0x3e4d963f	0.20076846
107	0xbdda257e	-0.10651682
108	0xbe920b95	-0.2852446
109	0x3e025da1	0.12731029
110	0xbe84c35f	-0.25930306
111	0x3e21e603	0.15810399
112	0x3d11a4c8	0.03555754
113	0xbe921a22	-0.28535563
114	0xbda11b5a	-0.07866545
115	0xbdd3daac	-0.10344443
116	0x3d5cf3c0	0.053943396
117	0x3e4596c8	0.192958
118	0xbba0688a	-0.0048952745
119	0x3e1b1f8e	0.15148756
120	0x3d1ebc0e	0.03875356
121	0xbe04291c	-0.12906307
122	0xbe0a58e4	-0.13510472
123	0x3e1bb3db	0.15205328
124	0xbe4ed35b	-0.20197813
125	0xbd123b19	-0.03570089
126	0xbd83cf55	-0.0643603
127	0x3e5934ca	0.21211544
128	0xbde76f2f	-0.113005035
129	0x3d278a17	0.040903177
130	0xbe3b01fa	-0.18262473
131	0x3e78e47c	0.2430591
132	0xbe5f9cd8	-0.21837175
133	0xbe3b9907	-0.18320094
134	0x3df78707	0.12086301
135	0x3e0f2332	0.1397827
136	0xbc4ab99d	-0.012373355
137	0x3d4ad7df	0.049522277
138	0x3d69535e	0.05696427
139	0xbe1b9d39	-0.15196694
140	0x3e0c69e7	0.13712274
141	0xbdc05370	-0.093909144
142	0x3ea185c3	0.31547365
143	0x3eae44ac	0.34036767
144	0x3c806759	0.01567428
145	0x3d9fbc6a	0.07799609
146	0x3e305213	0.17218809
147	0x3de185f6	0.11011879
148	0x3e02bdbb	0.12767689
149	0xbbd32375	-0.006443436
150	0x3d6a8377	0.05725428
151	0x3e5af2a3	0.21381621
152	0x3b90e63c	0.0044219773
153	0xbb7ec150	-0.0038872547
154	0xbd51bb72	-0.051204152
155	0x3ce03e2b	0.027373394
156	0xbe4eeb6d	-0.20206995
157	0xbe863ac9	-0.26216725
158	0xbdd55115	-0.10415856
159	0x3e492919	0.19644584
160	0x3d9669db	0.07344409
161	0x3d245706	0.040122055
162	0xbd3a83ba	-0.04553578
163	0xbd6afd88	-0.057370692
164	0x3da97dc8	0.08275944
165	0xbdd96d2d	-0.10616527
166	0x3d798302	0.060915954
167	0x3e8d5f18	0.27611613
168	0x3ea1d109	0.31604794
169	0xbed9b10b	-0.42517886
170	0x3d8afda0	0.067866564
171	0x3e24e8b7	0.16104399
172	0xbe0817b9	-0.132903
173	0x3d1c232d	0.038119484
174	0x3d42cb1f	0.047556993
175	0x3e1bf9df	0.15232037
176	0x3ceded3a	0.029043783
177	0xbd7afa5e	-0.061273925
178	0x3d942017	0.07232683
179	0xbde95fc0	-0.11395216
180	0xbdaca80e	-0.084304914
181	0x3e95d336	0.29262704
182	0x3db266be	0.08711003
183	0xbe690049	-0.22754015
184	0xbc6fdc9b	-0.014639999
185	0xbe2007d1	-0.15627982
186	0x3d980481	0.07422734
187	0xbe4651d0	-0.19367146
188	0xbe6c9705	-0.23104484
189	0x3c54b9b4	0.012983728
190	0xbbb574f3	-0.005537623
191	0x3d5712a3	0.052508008
192	0x3e6c1003	0.23052983
193	0xbea08340	-0.31350136
194	0xbe6deab8	-0.2323407
195	0x3d45c880	0.048286915
196	0x3e8a7e57	0.27049515
197	0x3e307453	0.17231874
198	0x3dca038c	0.09863958
199	0xbe37a887	-0.17935382
200	0xbc22e3a8	-0.009941973
201	0x3e3c5d7c	0.18395036
202	0xbe9de4b4	-0.3083855
203	0xbd94df68	-0.07269174
204	0xbcb22b06	-0.02174903
205	0xbd156bcf	-0.036479767
206	0xbe10d9a0	-0.14145517
207	0x3db7c327	0.08972769
208	0x3dddf795	0.10838238
209	0xbe42ca6a	-0.19022527
210	0x3dfe8331	0.124273665
211	0xbe5056ef	-0.20345663
212	0xbdd13b4d	-0.10216389
213	0xbdcb24d7	-0.09919136
214	0x3e147fcd	0.14501877
215	0x3e63dd5f	0.22252415
216	0xbe0ef729	-0.13961472
217	0x3dc1e5bb	0.09467646
218	0x3de0ece9	0.10982687
219	0xbe271de6	-0.16319999
220	0x3e29bbdb	0.16575567
221	0xbe430cd4	-0.19047862
222	0xbbaf0501	-0.0053411727
223	0xbda56162	-0.08075215
224	0xbe323d62	-0.17406228
225	0x3e5ff423	0.21870475
226	0xbdd7df76	-0.10540669
227	0x3db5665f	0.08857416
228	0x3e281584	0.16414458
229	0xbe81c031	-0.25341943
230	0x3dd06a69	0.10176546
231	0xbd5d9220	-0.054094434
232	0xbe80633e	-0.25075716
233	0xbe8dfc3f	-0.2773151
234	0xbe67bb71	-0.22630097
235	0xbde8c492	-0.11365618
236	0x3e280111	0.16406657
237	0x3dd73c31	0.105095275
238	0xbd4e433f	-0.0503571
239	0x3e192bac	0.14958066
240	0xbdfbf3b3	-0.12302341
241	0xbdc44287	-0.095830016
242	0x3df5326d	0.119725086
243	0x3e2c9c95	0.16856606
244	0x3e8f61a1	0.28004172
245	0xbe39c7ca	-0.1814262
246	0x3e0dccce	0.13847658
247	0x3e16aa61	0.14713432
248	0x3e219fa8	0.1578356
249	0x3cad8f06	0.021186363
250	0xbdd30aa8	-0.10304767
251	0x3e3654bc	0.17805761
252	0xbd463106	-0.048386596
253	0x3e5b9f9e	0.21447608
254	0x3de5e979	0.11226172
255	0xbdb07a4f	-0.086170785

fc1.bias f4 [64]
0	0x3e305b9d	0.17222448
1	0x3e46ff11	0.19433238
2	0xbe1a28fd	-0.15054698
3	0x3d947d72	0.07250489
4	0x3d9b4712	0.07581915
5	0xbdb90090	-0.090333104
6	0xbda00495	-0.07813374
7	0x3e536234	0.2064293
8	0x3ca1281d	0.019672448
9	0xbdb2493d	-0.08705375
10	0xbde9de47	-0.11419349
11	0x3e853b37	0.2602174
12	0x3dcb8aac	0.09938559
13	0x3e491d83	0.19640164
14	0xbe4c0a79	-0.1992587
15	0xbd9728ed	-0.07380853
16	0x3d7cb160	0.061692595
17	0x3e3e9757	0.18612419
18	0x3d81978c	0.063277334
19	0xbd168668	-0.036749274
20	0x3e92da77	0.286823
21	0x3e224da1	0.15849926
22	0xbe8fe322	-0.28102976
23	0x3dad2261	0.08453823
24	0x3e713c6f	0.2355821
25	0x3d560922	0.052254803
26	0x3e90952b	0.28238806
27	0xbe66f177	-0.22553049
28	0x3d393b0a	0.04522232
29	0x3e1b0a09	0.15140547
30	0x3d89789a	0.06712456
31	0xbdfd249f	-0.123605005
32	0xbd0d48d8	-0.034493297
33	0x3e1fe91c	0.15616268
34	0x3e8b6a29	0.2722943
35	0x3eb1560c	0.3463596
36	0x3d264e28	0.04060188
37	0x3d376191	0.04477078
38	0xbe358f98	-0.17730558
39	0xbd6e514f	-0.05818301
40	0xbb95a310	-0.0045665577
41	0x3e7e4b72	0.24833468
42	0x3d70c3db	0.058780532
43	0x3e540a8b	0.20707147
44	0x3eae7874	0.34076273
45	0xbe78447b	-0.24244873
46	0x3e34d958	0.17661035
47	0xbcd089cd	-0.025456334
48	0xbdb13c98	-0.086541355
49	0x3d441b52	0.047877617
50	0x3e557d8f	0.20848678
51	0x3e5249bb	0.20535938
52	0x3e5084ca	0.20363155
53	0x3e0a697d	0.13516803
54	0xbdb1f7ea	-0.08689864
55	0x3de8ca51	0.11366714
56	0x3e63ef04	0.22259146
57	0x3e64232f	0.22279046
58	0x3de0244f	0.10944425
59	0x3d6fa5ca	0.05850772
60	0xbd5182e9	-0.051150236
61	0x3e0570ac	0.13031262
62	0xbd6c08ef	-0.057625707
63	0x3e7474c1	0.23872663

fc2.weight f4 [32, 64]
0	0xbdb0ec8e	-0.08638869
1	0x3d1e72b6	0.038683616
2	0x3cffe461	0.03123683
3	0x3debcd11	0.11513723
4	0x3debbab3	0.115102194
5	0x3d2da705	0.04239561
6	0x3b45a6d8	0.003015926
7	0xbd785faf	-0.060638126
8	0xbd6a56c4	-0.057211652
9	0x3b95285f	0.0045519318
10	0xbd174c62	-0.03693808
11	0x3e333495	0.17500527
12	0x3ceb82e9	0.028748946
13	0x3db9ea5f	0.09077906
14	0xbd898bcb	-0.067161165
15	0xbddd13d8	-0.107948005
16	0x3e22d789	0.15902533
17	0x3e328f06	0.17437372
18	0xbc8b58e8	-0.017010167
19	0x3dcd6f70	0.10031021
20	0x3e237105	0.15961082
21	0xbdddd06c	-0.10830769
22	0x3e9d980a	0.3078006
23	0xbe2acd34	-0.16679841
24	0xbc10877c	-0.0088213645
25	0x3e25aa6e	0.16178295
26	0xbb2fc55b	-0.0026820514
27	0x3dae2d74	0.08504763
28	0x3de98cfb	0.11403843
29	0xbd77d407	-0.06050494
30	0xbe29d8f4	-0.16586667
31	0xbdb80f39	-0.089872785
32	0xbdec385f	-0.115341894
33	0x3c3c4a30	0.011492297
34	0x3d35a70c	0.04434876
35	0x3e7f2bfa	0.2491912
36	0x3d8aa4e7	0.06769734
37	0xbd923e53	-0.07140794
38	0x3b4382ed	0.0029832677
39	0x3de71263	0.11282804
40	0x3ccdddc5	0.025130162
41	0xbd5af344	-0.053454652
42	0x3dc18cac	0.09450659
43	0xbe30f220	-0.17279863
44	0x3c08b18d	0.008343113
45	0x3b9a7337	0.0047134417
46	0x3e3b4eae	0.18291733
47	0x3d491548	0.04909256
48	0xbda9dfb6	-0.082946226
49	0x3e3d33ba	0.18476763
50	0x3ca68b08	0.020329967
51	0xbd07ac8a	-0.03312353
52	0x3deab992	0.11461176
53	0x3c8837a0	0.016628087
54	0x3dfd2eac	0.123624176
55	0xbd005edb	-0.03134046
56	0x3d96a5c4	0.07355836
57	0x3eadaa3a	0.33918935
58	0x3e1721ee	0.14759037
59	0xbd328e4a	-0.04359273
60	0x3d44f4b0	0.048084915
61	0xbe631a9d	-0.22178121
62	0x3b2c9c3c	0.002633824
63	0x3e6a3be2	0.22874406
64	0x3e85226a	0.26002818
65	0x3e9f7585	0.31144348
66	0x3d193495	0.03740366
67	0x3e1633a0	0.14668131
68	0xbe977905	-0.29584518
69	0x3e8d97f0	0.27654982
70	0xbc9e2e90	-0.019309312
71	0x3e1bd876	0.15219292
72	0xbd1f04dc	-0.038822994
73	0x3b26ab33	0.0025431633
74	0x3d354dae	0.044263534
75	0xbc80b7c4	-0.015712626
76	0xbe69a660	-0.22817373
77	0x3d06a1fa	0.032869317
78	0x3dd5b097	0.104340725
79	0x3e84dc93	0.25949535
80	0xbc41e267	-0.011833764
81	0x3e706102	0.23474506
82	0xbdbdb9e2	-0.0926397
83	0xbdec7505	-0.11545757
84	0x3da0b2d4	0.07846609
85	0xbd2ec1ed	-0.04266541
86	0xbcc34281	-0.023835422
87	0xbd142aa0	-0.036173463
88	0x3e924ff0	0.28576612
89	0x3e292ee6	0.16521797
90	0x3d68323d	0.056688536
91	0x3dc2f925	0.09520177
92	0x3e53e59e	0.20693061
93	0x3d7777ea	0.060417093
94	0x3e499c71	0.19688584
95	0x3e43c993	0.19119863
96	0x3e1bbce5	0.15208776
97	0x3cc6dcb3	0.02427516
98	0x3d97a688	0.0740481
99	0xbe70433d	-0.2346315
100	0xbe22341a	-0.15840188
101	0x3de1ea88	0.110310614
102	0xbcc53767	-0.02407427
103	0x3d8dbce8	0.06920797
104	0xbd46d624	-0.048544064
105	0x3d5ed6fc	0.054404244
106	0xbd9d2e8a	-0.07674892
107	0x3e57dee3	0.21081118
108	0x3e8ce024	0.27514756
109	0x3da757ba	0.081710294
110	0xbe68371f	-0.22677277
111	0xbdb04433	-0.08606758
112	0x3dce63bc	0.100776166
113	0xbe6b365d	-0.22969957
114	0x3dc1a46e	0.094551906
115	0x3da2fd8b	0.07958516
116	0x3e47a2e0	0.19495726
117	0x3e392445	0.18080242
118	0x3e08a743	0.13345055
119	0x3ca3988c	0.019970201
120	0xbe403a4f	-0.18772243
121	0x3d6293a2	0.055316575
122	0xbdd08259	-0.10181112
123	0x3c36f104	0.011165861
124	0xbd6ec365	-0.05829181
125	0x3dd64c17	0.10463732
126	0xbd59c365	-0.05316486
127	0xbd7df3b5	-0.061999995
128	0xbd1a09e2	-0.03760708
129	0xbe375dc7	-0.17906867
130	0xbdc7ed03	-0.09762003
131	0x3dfacfcc	0.12246665
132	0x3e6e0c7e	0.23246953
133	0xbc6a6965	-0.014307355
134	0x3e351c9a	0.17686692
135	0xbe5df77e	-0.21676442
136	0xbd33d4ad	-0.043903995
137	0x3e040d97	0.12895809
138	0x3e33bd40	0.17552662
139	0x3df13bab	0.11778959
140	0x3e4ccbd5	0.19999631
141	0xbdab2760	-0.083571196
142	0x3d4d4049	0.050110135
143	0xbe941db8	-0.28928924
144	0xbce46d42	-0.02788413
145	0x3cf47054	0.029838718
146	0x3dd3b25a	0.10336752
147	0x3d31d4af	0.04341572
148	0x3d388ab8	0.045054168
149	0xba83f5ec	-0.0010067797
150	0x3e511c77	0.20421015
151	0xbd90f69d	-0.07078288
152	0x3df6e8a5	0.12056092
153	0x3ea0d200	0.31410217
154	0xbe80ade4	-0.25132668
155	0xbdfec480	-0.12439823
156	0xbbc2c5ac	-0.0059439745
157	0xbd4cecd9	-0.050030563
158	0xbed1bcd1	-0.40964368
159	0x3e65bf8c	0.2243635
160	0xbd90b9ed	-0.070667125
161	0x3dc5807d	0.09643648
162	0xbdebb9f1	-0.11510075
163	0x3d3400f1	0.04394621
164	0x3d11b5fd	0.03557395
165	0x3db499f7	0.08818429
166	0xbd44b9b8	-0.048028678
167	0xbd299f71	-0.04141182
168	0xbc2b0ddd	-0.010440317
169	0xbcda8ebc	-0.02667939
170	0x3e030bc9	0.12797464
171	0xbe3f5e75	-0.18688376
172	0xbcd40c3a	-0.025884736
173	0x3e54f055	0.20794804
174	0xbd29746b	-0.04137079
175	0x3e16096f	0.14652036
176	0xbbba429c	-0.00568421
177	0x3e82f24a	0.25575477
178	0xbb303148	-0.0026884843
179	0xbdacc7a6	-0.084365174
180	0x3e87cff3	0.2652584
181	0xbd6a25f4	-0.0571651
182	0xbd554482	-0.052067287
183	0x3dca3344	0.098730594
184	0x3e3a42ff	0.1818962
185	0xbbe36a28	-0.006940145
186	0xbcbddec7	-0.023177518
187	0xbb59ba0a	-0.003322246
188	0x3da53b99	0.08068008
189	0xbe8c6627	-0.27421686
190	0x3c9cf5cd	0.019160176
191	0x3d083c41	0.033260588
192	0xbdbf1cf7	-0.093316965
193	0xbd7b676c	-0.061377928
194	0xbd22f08e	-0.039780192
195	0xbd4990b2	-0.049210258
196	0x3dac1864	0.0840309
197	0xbdf654d6	-0.120279
198	0x3e1f5ac7	0.15561973
199	0x3d21915e	0.039445274
200	0x3db6e809	0.08930976
201	0xbdd87e46	-0.1057096
202	0x3e1a27ba	0.15054217
203	0x3dc83cb9	0.09777207
204	0x3e2d805a	0.16943493
205	0xbd01edcf	-0.031720933
206	0x3c55e7b3	0.01305573
207	0x3ccf489a	0.025303174
208	0x3df8d086	0.12149148
209	0xbd3d353d	-0.04619335
210	0x3e3f969d	0.18709798
211	0x3dc95cf2	0.09832181
212	0x3e0da272	0.13831499
213	0x3e0a71e5	0.1352001
214	0x3e34e821	0.17666675
215	0xbd9989d8	-0.07496995
216	0x3de5e1a8	0.11224681
217	0x3dc497bc	0.095992535
218	0x3dcb4b42	0.09926464
219	0xbdb8a3e1	-0.090156324
220	0x3d737509	0.059437785
221	0x3dbd9286	0.09256463
222	0xbe7fdcdf	-0.249866
223	0xbd934e79	-0.07192702
224	0xbe5db45a	-0.2165083
225	0x3ce10739	0.027469264
226	0x3d981f29	0.07427818
227	0x3e343fb7	0.1760243
228	0x3e44708e	0.19183561
229	0x3de5a8b5	0.11213819
230	0x3d90b048	0.07064873
231	0x3d1d1986	0.03835442
232	0xbbfae94b	-0.007657205
233	0xbd674d50	-0.056470215
234	0xbd4df8ce	-0.050286107
235	0x3bb96452	0.005657711
236	0xbd721aeb	-0.059107702
237	0xbd0069fa	-0.031351067
238	0x3dbc486f	0.09193503
239	0x3e31aaf7	0.17350374
240	0xbd6117d9	-0.054954384
241	0x3e0e9a3b	0.13926022
242	0xbe1237d5	-0.1427911
243	0xbddc2ce4	-0.1075075
244	0x3e01094c	0.12601203
245	0xbdf14ce5	-0.117822446
246	0x3c6f2895	0.014597078
247	0xbdaf7682	-0.085675254
248	0x3dd2593a	0.10270925
249	0x3dd40b61	0.10353733
250	0xbc879046	-0.016548287
251	0x3e057f1a	0.13036767
252	0x3d4ab18e	0.049485736
253	0xbdc985f7	-0.09840005
254	0xbc052013	-0.008125323
255	0xbc023321	-0.00794676

fc2.bias f4 [32]
0	0x3e2969c9	0.1654426
1	0x3e01a579	0.12660779
2	0xbcf8d357	-0.030374212
3	0x3d44787c	0.047966465
4	0x3e0fc043	0.14038186
5	0xbd555a95	-0.05208834
6	0x3e2a713b	0.16644756
7	0x3d8fae9e	0.070157275
8	0x3e02e142	0.12781242
9	0x3dcad980	0.09904766
10	0xbd30fe7d	-0.04321145
11	0x3a5af8c2	0.0008353108
12	0x3cbaba2b	0.02279385
13	0x3d01c4ea	0.031681933
14	0xbdcbbe50	-0.099484086
15	0x3daa793c	0.08323905
16	0x3ccfb534	0.02535496
17	0xbb9fafc9	-0.00487325
18	0x3dd96331	0.106146224
19	0xbd0f9ff5	-0.035064656
20	0x3c0e8196	0.008697888
21	0x3e33e6bb	0.17568485
22	0x3d27e33c	0.040988192
23	0x3e4a5dca	0.1976234
24	0x3e38053b	0.17970745
25	0x3bb0fad6	0.0054009957
26	0x3d730457	0.05933031
27	0x3e1e9420	0.15486193
28	0x3dd10153	0.10205331
29	0x3e396f9b	0.1810898
30	0x3e0135eb	0.12618224
31	0x3d657afb	0.056025486

fc3.weight f4 [16, 32]
0	0xbe4c925a	-0.19977704
1	0x3e259146	0.16168699
2	0xbe3134a1	-0.17305233
3	0xbe527c95	-0.20555337
4	0x3e743d99	0.23851623
5	0x3d0d2203	0.034456264
6	0x3ca65675	0.020304898
7	0x3dedaecc	0.116056055
8	0x3cb5f31a	0.022210646
9	0x3dfc791f	0.123277895
10	0xbe4eaece	-0.2018387
11	0xbcfad932	-0.030621145
12	0xbdf410ca	-0.11917265
13	0x3c56c614	0.013108749
14	0xbe87eecb	-0.26549372
15	0x3de38eca	0.11111219
16	0xbd8c0db6	-0.06838553
17	0xbe9b38d6	-0.303168
18	0x3e0add4d	0.13560982
19	0xbe460db6	-0.19341168
20	0x3e2f207a	0.17102233
21	0x3d22b019	0.03971872
22	0x3de9de3d	0.11419342
23	0x3dc8baf1	0.09801281
24	0x3e30cddd	0.1726603
25	0x3d219559	0.03944907
26	0x3e394007	0.1809083
27	0xbdb9438d	-0.090460874
28	0xbf0ebf96	-0.55761087
29	0xbe3376f0	-0.1752584
30	0x3dfc5046	0.123199984
31	0x3d8fa049	0.07012994
32	0x3e41a01b	0.18908732
33	0xbd01c208	-0.031679183
34	0x3dc03971	0.09385956
35	0x3eab5bae	0.33468384
36	0x3e762820	0.24038744
37	0xbe4468fe	-0.19180676
38	0x3d700e33	0.05860729
39	0xbda105d5	-0.078624405
40	0x3ceab8b3	0.028652525
41	0x3e3a2a8d	0.18180294
42	0xbe45db69	-0.1932198
43	0x3d9fd721	0.078047045
44	0x3e161c04	0.14659125
45	0x3e769166	0.24078903
46	0xbc11d853	-0.008901673
47	0x3e6ce275	0.23133262
48	0xbc96d1ac	-0.018410526
49	0xbd9bb6fc	-0.07603261
50	0x3dbbc747	0.091688685
51	0xbd4468bf	-0.047951456
52	0xbd1e30f1	-0.038620893
53	0x3d3ac14c	0.0455945
54	0xbe7ab957	-0.24484764
55	0x3e5b08a0	0.21390009
56	0x3e3b6d1c	0.1830334
57	0x3dad3abd	0.08458469
58	0xbe92d52d	-0.28678265
59	0xbdf1bf8e	-0.11804114
60	0xbe687eb1	-0.22704579
61	0x3e8d2fdc	0.27575576
62	0xbd08a546	-0.033360742
63	0x3dc612a8	0.09671527
64	0x3e331b42	0.17490867
65	0xbd06a3c0	-0.032871008
66	0x3e8b10da	0.27161294
67	0xbc2795af	-0.010228558
68	0x3e5bbdec	0.21459168
69	0x3d36eb1b	0.044657808
70	0xbe718e6f	-0.2358949
71	0xbdaef0c5	-0.08542017
72	0x3e7b34e3	0.24531893
73	0x3e908f5b	0.28234372
74	0x3e8468f8	0.25861335
75	0xbdaadfab	-0.083434425
76	0x3e1625ea	0.146629
77	0x3c69e832	0.014276551
78	0x3db81384	0.08988097
79	0x3dafd24f	0.08585035
80	0xbdee3de3	-0.11632898
81	0x3e3d647a	0.1849536
82	0x3e4063d5	0.18788083
83	0x3e717238	0.23578727
84	0xbe607bf0	-0.21922278
85	0x3e78e079	0.2430438
86	0xbd038af2	-0.03211493
87	0x3cc4ae52	0.024008904
88	0x3e31aa23	0.17350058
89	0x3d90c2ba	0.07068391
90	0x3d839249	0.06424386
91	0xbdbcbe0a	-0.092159346
92	0x3e53400f	0.20629905
93	0xb9d47d80	-0.00040529296
94	0xbd620b6a	-0.055186667
95	0xbdfbc1b3	-0.122928046
96	0x3df04a21	0.11732889
97	0xbcf35316	-0.029702704
98	0x3d5a31a7	0.05327001
99	0x3e49a6c8	0.19692528
100	0xbd7ce68e	-0.06174331
101	0x3dc4679c	0.095900744
102	0xbd73ee45	-0.059553403
103	0x3e721959	0.23642482
104	0xbdefcc89	-0.11708934
105	0xbdf8162b	-0.12113603
106	0xbdc6787c	-0.09690949
107	0xbdc4f717	-0.09617441
108	0x3db0fc6e	0.08641897
109	0x3dda6a05	0.10664753
110	0x3e4bdfb8	0.1990956
111	0x3e3b1285	0.18268783
112	0xbcd252f0	-0.025674313
113	0xbe1264cd	-0.14296265
114	0x3e5aea22	0.21378377
115	0xbe1b1e0b	-0.15148179
116	0x3e543db8	0.20726669
117	0x3e261307	0.16218196
118	0xbda2d8ca	-0.079515055
119	0xbde0dc7a	-0.109795526
120	0xbd92bf1d	-0.07165358
121	0xbccff2f9	-0.025384413
122	0xbd9e1a7a	-0.07719894
123	0x3c41bbe6	0.011824584
124	0xbdd10e76	-0.10207836
125	0x3db2e640	0.08735323
126	0x3d866e50	0.06564009
127	0x3e1e806a	0.15478674
128	0x3da2e5cb	0.07953986
129	0xbd881a2d	-0.06645618
130	0x3daccc3f	0.08437394
131	0x3e398768	0.1811806
132	0x3e2f01d4	0.17090541
133	0x3e39c1da	0.18140355
134	0x3da988d3	0.0827805
135	0x3e6d3f6c	0.23168725
136	0x3d6ccbbc	0.057811484
137	0xbcdd901e	-0.02704626
138	0xbddb385d	-0.1070411
139	0xbdd8e916	-0.105913326
140	0x3e79bcdc	0.2438845
141	0x3dc6d3b0	0.09708345
142	0x3e35d17b	0.17755692
143	0xbcc9e6ab	-0.024646124
144	0xbd79fd77	-0.06103274
145	0xbca272aa	-0.019830067
146	0x3e910a09	0.2832797
147	0xbd91b100	-0.07113838
148	0x3e47d736	0.1951569
149	0xbe0f5526	-0.13997325
150	0xbe4734e7	-0.19453774
151	0x3e392997	0.18082272
152	0x3de317c6	0.11088519
153	0xbd8abd30	-0.06774366
154	0xbe56896e	-0.20950863
155	0xbe075074	-0.13214284
156	0xbd520874	-0.051277593
157	0x3e46bd9a	0.19408265
158	0x3d025ade	0.03182494
159	0x3e68003c	0.2265634
160	0xbd86b323	-0.06577136
161	0x3e835668	0.2565186
162	0x3e848d3a	0.25888997
163	0xbe23c2f9	-0.15992345
164	0xbe7223f0	-0.23646522
165	0xbda7f547	-0.0820108
166	0x3e62a850	0.22134519
167	0x3da374c4	0.07981256
168	0x3e1301e4	0.1435619
169	0xbe204ca2	-0.15654233
170	0xbd2eebd3	-0.04270537
171	0xbdfdc285	-0.12390617
172	0xbbe5abbd	-0.007008998
173	0x3da18389	0.078864165
174	0x3da6000e	0.08105479
175	0x3cfefe8e	0.03112724
176	0x3e4df5d3	0.20113306
177	0x3ce3a228	0.027787283
178	0xbd8ece73	-0.06972971
179	0x3d8ab239	0.067722745
180	0xbd50365b	-0.050833087
181	0xbe970fc5	-0.2950422
182	0x3b902a23	0.0043995543
183	0x3d70c2c3	0.05877949
184	0x3e27c6c8	0.16384423
185	0xbe1bcedb	-0.15215628
186	0x3bf0deb5	0.0073507675
187	0xbdd9f9de	-0.106433615
188	0x3daf5b79	0.08562369
189	0xbd9a717c	-0.07541177
190	0xbc89ab7a	-0.0168054
191	0x3dc09484	0.09403327
192	0x3d94101b	0.072296344
193	0x3da6ebc8	0.081504405
194	0xbdd63afe	-0.104604706
195	0x3c4d636e	0.012535913
196	0xbbe54c05	-0.0069975876
197	0xbc1c605b	-0.009544457
198	0x3cb51c66	0.022108268
199	0xbe3f4a88	-0.18680775
200	0xbd9273db	-0.07151004
201	0x3e3eae60	0.18621206
202	0x3e69791b	0.22800104
203	0xbda141e3	-0.07873895
204	0x3e185710	0.14876962
205	0x3d953137	0.072847776
206	0xbe320251	-0.17383696
207	0x3e37cdec	0.17949647
208	0xbdadfee6	-0.08495884
209	0x3c9fd015	0.019508401
210	0xbe15964f	-0.1460812
211	0x3e0ce1e1	0.13758041
212	0x3c3a94df	0.011388033
213	0xbc9d51af	-0.019203989
214	0x3e8167c2	0.25274473
215	0x3e777e3d	0.2416925
216	0x3e37e64f	0.1795895
217	0xbe480afb	-0.19535439
218	0x3e395b34	0.18101197
219	0xbd82a506	-0.06379132
220	0xbe9a6cf2	-0.30161244
221	0x3d87bd56	0.0662791
222	0x3e4cb00e	0.19989035
223	0xbd8920b6	-0.06695692
224	0xbe061361	-0.1309333
225	0x3dfec518	0.124399364
226	0xbe3bcae4	-0.18339115
227	0xbe010c54	-0.12602359
228	0x3dd6e867	0.10493546
229	0xbc862c12	-0.016378436
230	0x3d5671bf	0.05235457
231	0xbe189800	-0.14901733
232	0x3da0d7ac	0.07853636
233	0x3e2fd474	0.17170888
234	0x3e5c2ef7	0.2150229
235	0x3d4265f7	0.047460523
236	0xbe38fd75	-0.18065436
237	0x3e287200	0.16449738
238	0x3babda82	0.005244554
239	0x3e30ad76	0.1725367
240	0x3e876d3a	0.2645052
241	0xbe1af606	-0.15132913
242	0x3e293764	0.16525036
243	0x3d303cf3	0.043026876
244	0x3e865b1d	0.2624139
245	0x3b039d3d	0.0020082735
246	0x3e759880	0.23983955
247	0x3e74f24c	0.23920554
248	0xbd066cd1	-0.03281862
249	0xbbfff3b2	-0.007811033
250	0x3e5cc70b	0.21560304
251	0xbc1ffb0a	-0.009764442
252	0x3e18fd8b	0.14940469
253	0xbdfe50f5	-0.12417785
254	0x3e681789	0.22665228
255	0x3d89274b	0.06696948

fc3.bias f4 [16]
0	0xbda24acf	-0.07924425
1	0x3dbf40c1	0.09338523
2	0x3dc3560b	0.09537896
3	0x3e01afdb	0.1266474
4	0x3da54810	0.080703855
5	0x3e0791e7	0.13239251
6	0x3dd66d83	0.104701065
7	0x3d8b57bb	0.06803843
8	0xbd240542	-0.040044077
9	0xbc9d797b	-0.019222965
10	0x3c07e279	0.008293741
11	0xbdf8e71a	-0.12153454
12	0x3e4856ff	0.19564436
13	0xbd6a2ede	-0.057173602
14	0x3d28b3e5	0.041187186
15	0xbd7ad7ec	-0.061241075

fc4.weight f4 [3, 16]
0	0xbd770a15	-0.06031235
1	0x3e9ab80c	0.30218542
2	0x3da15fe8	0.07879621
3	0x3e41cdcf	0.18926166
4	0x3ea08ddc	0.3135823
5	0xbe3fc04d	-0.187257
6	0xbdfcf6da	-0.12351771
7	0xbe61c530	-0.22047877
8	0xbd2e4108	-0.042542487
9	0xbe45fbec	-0.19334382
10	0x3c965603	0.01835156
11	0xbe4b2694	-0.19838935
12	0x3ea25f57	0.31713364
13	0xbeb1abe3	-0.34701452
14	0xbd8a0a70	-0.06740272
15	0xbdb9de70	-0.0907563
16	0x3eb224a1	0.3479357
17	0x3dc77374	0.09738818
18	0xbe9185b4	-0.2842232
19	0xbe4d939f	-0.20075844
20	0xbe22be03	-0.15892796
21	0xbe5ad982	-0.21372035
22	0x3e857fed	0.26074162
23	0x3eb2ff0e	0.34960216
24	0x3e46c6f1	0.19411828
25	0x3e34b999	0.17648925
26	0x3e3d412d	0.18481894
27	0x3c6bd394	0.014393706
28	0x3e91562f	0.28386065
29	0xbe83b94e	-0.25727314
30	0xbe859de6	-0.2609703
31	0x3e20970b	0.15682618
32	0x3e5702a2	0.20997098
33	0xbe073f59	-0.13207759
34	0xbeb42fa0	-0.35192585
35	0x3e66e5cd	0.225486
36	0x3e84ee68	0.2596314
37	0x3e31ef60	0.1737647
38	0xbea6e753	-0.3259836
39	0x3de40ab7	0.11134856
40	0xbe7fd837	-0.24984823
41	0xbe23848d	-0.15968533
42	0x3e2eacdd	0.1705813
43	0xbe47a37f	-0.19495963
44	0x3e68e412	0.22743252
45	0x3e8b6f76	0.27233475
46	0xbe8297fe	-0.25506586
47	0xbc8d145d	-0.017221624

fc4.bias f4 [3]
0	0xbdf476d5	-0.11936728
1	0xbda21572	-0.079142466
2	0xbe071b64	-0.13194042
